snn/best_lif_snn_model.pth (torch, 152997 bytes, 14 tensors)

fc1.weight f4 [128, 208]
00000000: 4c53 de3d 0448 92bc e916 073c a85a 093d
00000010: b515 733d 79cd dbbc ece1 3abe 2b51 f2bd
00000020: dd1c da3c 7326 bd3d 557d efbc 18a6 08be
00000030: 33a0 35bd c370 bcbc 7882 ac3c 9e9b a2bd
00000040: 256b 3f3d e4a2 a53d 2622 f5bc de36 893d
00000050: baf2 e4bc 8ff6 c1bd 3eeb 26be b562 27be
00000060: 6976 1c3e 2864 a63d d5d0 efbd 62c0 93bd
00000070: 3230 8f3c c120 b3bd 97fa a13c 796c 20be
00000080: 7246 fd3d 04f2 d2bc 2dfc 943d 9ca4 ed3d
00000090: 10be d6bd fbce 2abe 142b 29bd f297 b23d
000000a0: 0822 df3c e04b 153e 4352 433d 0d6c ffbb
000000b0: 4f6c 863c 80b8 2cbd aea6 4bbd 19e7 5abd
000000c0: 626c ab3d a8dc 133d 53d6 1f3e de74 0cbc
000000d0: daa0 c9bd f338 0f3d 892f 18be e20a c1bd
000000e0: fc3b 323e 22c4 0a3e 4451 75bc 99a9 05be
000000f0: b070 9fbd 7628 79bb 1cbe b2bc 44a3 09bd
00000100: 5d00 633d 1f8f 393e 2ab6 5a3c a33d 943d
00000110: e933 753d 9174 d83c e59f 2cbe 99f1 923d
00000120: 870d 763d 2c08 ce3c db8b 403e 701f 50bd
00000130: f9e1 6dbd b334 293d 767e 21bd 88f7 53bd
00000140: 2832 0c3a 0eed c73d c461 183e 852f cb3d
00000150: bd2e f13d 80f0 c43d f6aa a2bc bd88 5fbd
00000160: 7cdb 9b3d 14a6 6e3d 0f2d 333e cfd1 b3bd
00000170: 0358 1fbd f38d db3d fba5 903c 1622 f43c
00000180: 6daa 523e fdb7 2d3d c70e 2b3e 94e5 ba3d
00000190: ddda 7c3d b922 87bc 09e5 1c3d 8031 153e
000001a0: 8bf0 9a3d 7ab6 01bb e7dc a13d 9869 f6bc
000001b0: 629b 773d 5187 883d 3525 1e3c be1a 263e
000001c0: d0e5 c43d 1990 2b3e ec74 8c3d 05ef 103e
000001d0: 7cbc 553e 68fe 753b 9bc9 e7bc 5458 9e3d
000001e0: f63c 763e 9261 4f3e 9ac2 cd3d 9f6f c0bc
000001f0: 7b26 ce3d 7980 343c 370f 05be a9d9 bf3d
00000200: 6f65 373e 8d82 7f3d 73d7 ae3d 218c 673e
00000210: e8da 693e 97ff 47bd 4d0b a1bc 6973 78bd
00000220: 6bfc 9d3d 969e 363d a040 d73d 5e10 01bd
00000230: d4b2 003e a713 89bc 2eaa bcbc 5dce 983d
00000240: d2b0 4c3d 1894 283e 9828 4d3e 72d3 dfbb
00000250: 6672 303d 1c09 17be ffbe 14be 0ff6 a3bd
00000260: eb6b f23d 3b1d d23c aaed 0a3e 3069 043e
00000270: 4c7d b2bb 8789 a43c a8f2 2fbd 35c2 3dbd
00000280: deab dc3d e0f7 d2bd 1e11 8ebd fc2e 05bd
00000290: 9e21 d93d 443f 21bd 7da5 22be f42c 94bd
000002a0: 0986 b7bc 03ac 4a3d 533e 953c 1bfc 173e
000002b0: 27da 663d ef51 e4bc 5467 eabd ad0d 37bd
000002c0: 2c75 0ebd 02ab 13bd cc8b 07be d9cb b7bc
000002d0: 2b66 3a3e 965b f7bc 7661 00bd 4c96 113c
000002e0: 6ab5 32bd 811c b33d 8cac cf3c 4e75 7c3d
000002f0: b792 12bd f217 533d 49a5 ff3c a3aa 073d
00000300: 89ad c63b 74fd 21be ecce 37bb ac5a 17be
00000310: c4fc 7f3d 1205 ecbd 5a08 d1bd 5fb6 823c
00000320: b420 afbb 52d6 823d 0175 7b3d 1870 7bbc
00000330: 9b3d c7bc 742c 6ebd b771 1ebd 7064 93bc
00000340: 1227 88bd 3416 fa3c 42a0 57bd 4386 2ebc
00000350: f802 e6ba 6bd0 b53d daaa ca3d ec4c 393d
00000360: f77c 0f3d 8989 b4bd 633a e7bc bd29 5ebd
00000370: 5cd5 1f3d 8a74 613c 9c29 9fbc 5112 1dbd
00000380: 01d7 b3bc 059c 0b3e 2ef3 e33d 46b8 80bd
00000390: b86a ce3d 4b70 b03d fab1 69bd 0658 bbbd
000003a0: de8a eabd 771d 31bc 2023 bd3d 76c6 ee3d
000003b0: 3eec 053e 1176 0c3e e22e 5e3d c57b 193c
000003c0: bd44 133d 0955 ecbc df4c 153d e89a 0bbe
000003d0: 4cc8 553e d745 153d d0ba b63d 4774 0ebe
000003e0: 589e 0fbe 087b aa3d d134 033e 317e df3d
000003f0: 141b 4c3e 95f1 dc3d b08b b53d 25a3 193e
0.10855731 -0.017856605 0.008245208 0.033533722 0.059346873 -0.026831375 -0.18250245 -0.11831888
0.026625091 0.09235849 -0.029234568 -0.1334461 -0.04434223 -0.023002988 0.021058306 -0.07939838
0.04673304 0.080877095 -0.02992351 0.06699918 -0.027947772 -0.094708554 -0.16300675 -0.16346247
0.15279545 0.08124572 -0.117097534 -0.072144285 0.017479036 -0.08746482 0.01977281 -0.15666379
0.12366952 -0.025750168 0.07274661 0.11603662 -0.1048547 -0.1668052 -0.041300848 0.087203875
0.027237907 0.14579725 0.047685873 -0.007794863 0.016409067 -0.04216814 -0.049719505 -0.05344305
0.08370282 0.036099106 0.15609102 -0.008572785 -0.09845133 0.03496642 -0.14861883 -0.09425904
0.17405695 0.13551381 -0.0149729885 -0.13052978 -0.07785165 -0.0038018501 -0.021819167 -0.033602968
0.05542027 0.18121003 0.013349095 0.07238319 0.05986396 0.02642277 -0.1685787 0.07174987
0.060071494 0.025150381 0.1880335 -0.05081123 -0.058076832 0.041310024 -0.039427243 -0.051749736
0.000534805 0.097620115 0.14881045 0.09921173 0.11776493 0.09616184 -0.019856911 -0.054573763
0.07610223 0.058263853 0.17497657 -0.08780252 -0.038902294 0.10720434 0.01765727 0.02980141
0.20572825 0.042411793 0.16704856 0.0912582 0.06173216 -0.01649605 0.038304362 0.14569664
0.07565411 -0.0019792602 0.07903462 -0.030079648 0.06045092 0.066664346 0.009652426 0.16221139
0.09614146 0.16754188 0.068582386 0.14153679 0.20872682 0.003753567 -0.028294375 0.07731691
0.24046692 0.20252064 0.10046883 -0.023490725 0.10065933 0.011016958 -0.12994085 0.09367687
0.17909788 0.062380362 0.085371874 0.22612049 0.22837412 -0.048827734 -0.019658709 -0.06065694
0.077141605 0.044584833 0.10510373 -0.03150975 0.12568218 -0.016733004 -0.023030367 0.07461236
0.049973316 0.16462743 0.20035017 -0.006830626 0.04307785 -0.14749569 -0.14525984 -0.08005916
0.1183699 0.025648704 0.13567224 0.12930751 -0.0054470655 0.02008511 -0.042956024 -0.04632779
0.107749686 -0.10301185 -0.069368586 -0.03251551 0.10602115 -0.039366975 -0.15883441 -0.07235137
-0.02240278 0.04948045 0.018218195 0.14842264 0.05636039 -0.0278711 -0.114454895 -0.044690777
-0.034779713 -0.036051758 -0.13236922 -0.02243607 0.18203036 -0.030195039 -0.031342946 0.008885931
-0.04363004 0.08745671 0.025350831 0.061635308 -0.03578445 0.051536508 0.031206744 0.033121716
0.0060631675 -0.15819341 -0.002804692 -0.14780682 0.062496915 -0.115244046 -0.10206671 0.015956102
-0.0053444747 0.063885346 0.06139088 -0.015346549 -0.024321368 -0.058147863 -0.038682666 -0.017992228
-0.06648077 0.030528165 -0.052643068 -0.010652128 -0.0017548492 0.08877643 0.098958686 0.045239374
0.035031285 -0.08815295 -0.028226083 -0.054239023 0.039021835 0.013760695 -0.01942902 -0.038347546
-0.021953108 0.13633735 0.11130367 -0.06285147 0.10078949 0.08615168 -0.057054497 -0.091476485
-0.11452268 -0.010810248 0.09235215 0.11658947 0.130784 0.13716914 0.05424393 0.009367888
0.035954226 -0.028849142 0.036450263 -0.13633311 0.20877188 0.036443558 0.089223504 -0.13911544
-0.14025247 0.083242476 0.12813117 0.10912741 0.19932204 0.107882656 0.08864534 0.15003641

fc1.bias f4 [128]
00000000: 70ac eb34 bf6c 9035 641a a236 ad58 15b6
00000010: ba1f 2d37 8b3f 6f37 9045 7736 6e88 7236
00000020: beb3 dc36 0c74 4a35 86bc 17b8 3506 b136
00000030: c4ed f8b7 fc75 8434 a633 0237 1aee 6535
00000040: 740a 9e37 7ebf 9e35 baf4 8cb6 f8b3 fcb5
00000050: e4b7 a9b5 2962 5237 3842 06b5 1430 de34
00000060: aba9 a1b7 ccda c0b3 2edc af36 e839 1fb6
00000070: 50cd 2fb4 f588 ceb6 5c60 aab6 b69d a0b6
00000080: c08b 8135 8d2a 2938 00d5 47b5 1502 81b7
00000090: a009 bab3 c86d 8436 c0a7 1536 c225 0637
000000a0: 0ba4 d4b5 19c5 cdb5 2963 2cb7 fc04 d236
000000b0: bc7f 5c36 1da4 8837 eccd e4b6 8c42 e6b5
000000c0: 44f6 85b7 a6d2 2836 80ea 9137 e0aa d5b4
000000d0: 7823 30b5 8a49 1ab6 1ffb 6db6 52d9 84b7
000000e0: 25c9 9336 9879 c0b5 2d20 28b8 10a6 ca35
000000f0: f455 2536 9851 b436 3a86 96b6 d9c1 6436
00000100: 0ada 4ab5 424f d136 b853 eeb5 d9d7 53b6
00000110: 90fc b037 a132 5cb6 e0c4 83b2 7806 d5b6
00000120: 8241 6db7 b39b fab5 b482 27b7 a7ed 58b6
00000130: 4ecf 8cb8 c801 f5b6 e0f0 96b5 180b 6336
00000140: a49a 7cb6 0c7e 55b7 997e d7b6 ceb4 0b37
00000150: e1ef 3c36 2753 91b6 8c38 3334 089e bfb6
00000160: 5cb6 82b6 c02d 6333 d222 d6b5 fa8b 38b6
00000170: 80f4 70b4 f465 b235 0e29 bab5 e870 4937
00000180: 2ec6 70b6 d83d 2bb6 1c08 c2b6 ec24 e635
00000190: 44be d6b6 fd8e 05b6 8cc6 37b7 d3a3 edb7
000001a0: 2459 0835 286a f035 1007 c2b6 53f3 d837
000001b0: 5dee 8336 da00 e6b7 1287 6037 0464 6fb7
000001c0: 4891 8eb6 1cda 3d36 1001 4235 2bbf 8136
000001d0: 8d49 34b6 8806 2737 502f 53b7 e278 b235
000001e0: f219 b537 6a0c 87b5 7839 c5b5 cade 02b7
000001f0: b207 29b7 5bd6 71b6 10a1 9e35 c07c 98b4
4.3897626e-07 1.0760485e-06 4.8310485e-06 -2.2254346e-06 1.03189905e-05 1.4260305e-05 3.6846359e-06 3.6140223e-06
6.5774357e-06 7.5419734e-07 -3.617678e-05 5.2757337e-06 -2.9674622e-05 2.467276e-07 7.760629e-06 8.565563e-07
1.8839935e-05 1.1827649e-06 -4.200815e-06 -1.8827841e-06 -1.2645e-06 1.253983e-05 -5.001525e-07 4.1385704e-07
-1.9271703e-05 -8.9804956e-08 5.2410387e-06 -2.3726552e-06 -1.6372837e-07 -6.1552223e-06 -5.0776125e-06 -4.7867316e-06
9.651922e-07 4.033237e-05 -7.444323e-07 -1.5378968e-05 -8.663051e-08 3.946687e-06 2.2300374e-06 7.995814e-06
-1.5842974e-06 -1.5331053e-06 -1.0275086e-05 6.259068e-06 3.2856906e-06 1.6288885e-05 -6.818902e-06 -1.7155703e-06
-1.5969512e-05 2.5156564e-06 1.7394545e-05 -3.979867e-07 -6.5616723e-07 -2.2990594e-06 -3.5461924e-06 -1.5836824e-05
4.4043577e-06 -1.4340503e-06 -4.0084287e-05 1.5098503e-06 2.4636947e-06 5.373917e-06 -4.4859744e-06 3.4087482e-06
-7.556815e-07 6.237912e-06 -1.7756747e-06 -3.156709e-06 2.1098444e-05 -3.2812025e-06 -1.5339936e-08 -6.3486477e-06
-1.4141553e-05 -1.8671766e-06 -9.984407e-06 -3.232484e-06 -6.714334e-05 -7.3017763e-06 -1.1245975e-06 3.3832093e-06
-3.764094e-06 -1.2725137e-05 -6.422237e-06 8.3271425e-06 2.815381e-06 -4.331017e-06 1.6691246e-07 -5.710641e-06
-3.8955313e-06 5.2894165e-08 -1.5954377e-06 -2.7499614e-06 -2.244069e-07 1.3291706e-06 -1.3870028e-06 1.2006822e-05
-3.5878143e-06 -2.5516983e-06 -5.7825946e-06 1.7147081e-06 -6.399847e-06 -1.9901775e-06 -1.0953878e-05 -2.8328888e-05
5.0793665e-07 1.7912289e-06 -5.7824727e-06 2.5862513e-05 3.9318534e-06 -2.7418533e-05 1.3382889e-05 -1.4268797e-05
-4.2488427e-06 2.829015e-06 7.227218e-07 3.8667545e-06 -2.6864902e-06 9.955496e-06 -1.2587596e-05 1.3297215e-06
2.1588963e-05 -1.0061897e-06 -1.4694369e-06 -7.800476e-06 -1.0074977e-05 -3.603657e-06 1.1818793e-06 -2.8402974e-07

bn1.weight f4 [128]
00000000: a04b 1e3f a981 2f3f 13b5 443f 12a0 fc3e
00000010: e84f 533f 5fe3 5d3f 33b4 2d3f 7468 4b3f
00000020: 6121 793f 6dfc 243f 2ae6 8e3f 043e 653f
00000030: 8320 583f c87c 373f 2e50 1a3f cf3e 4b3f
00000040: e0db 633f 6a25 153f d152 293f b81e 0c3f
00000050: 5ed8 613f d620 0f3f 4ecc 463f 0ef7 1f3f
00000060: c072 4c3f 0ad2 bd3e 3c35 073f 77c4 5e3f
00000070: a790 1e3f 4514 463f d6fb 513f 44e9 4c3f
00000080: 85bd 663f 46d2 853f ef52 3e3f 4987 663f
00000090: f7ed 6b3f 192d 5c3f 0504 5e3f 16cc 283f
000000a0: c560 303f dd6f 183f 7e5f 373f b618 1a3f
000000b0: 2ac4 3d3f d3f7 333f e7df 443f 4cea 043f
000000c0: a65c 5b3f 2775 1d3f 7388 263f 5374 5f3f
000000d0: 7a60 573f 3c70 1f3f 7b87 253f 02a2 893f
000000e0: 68d7 493f 5c8d 5d3f 8afb 893f e6b7 4b3f
000000f0: d80a 4d3f c8f4 443f f1bb 5a3f 1a12 493f
00000100: 5a43 f53e 0f28 573f 088f 773f fb6f 293f
00000110: 6867 853f c56b 083f c278 1b3f 1f1f 4f3f
00000120: d281 593f b7c9 0a3f 8543 543f bdd7 4a3f
00000130: 79ac 503f 6f1f 653f a22a 263f c1a9 5b3f
00000140: 327d 303f f3bd 393f 2867 323f d359 2c3f
00000150: f714 303f 0dbf 223f 6deb 2c3f 2228 2c3f
00000160: 5eb2 5b3f 3181 543f a5e0 0f3f 2d51 e73e
00000170: a734 003f e40e 5b3f a3db 303f 72a9 3a3f
00000180: fe55 003f 47b2 613f 853f 2c3f 662f 2c3f
00000190: abeb 3c3f cedd 2b3f b3c8 3a3f f822 0a3f
000001a0: 29f7 553f c0bb 4c3f 83ac 523f e018 3c3f
000001b0: b897 893f cabf 6c3f b45d 663f bc16 4f3f
000001c0: 01b3 5b3f c95f 253f af10 233f 52e7 fc3e
000001d0: bbad ef3e a377 593f c287 873f 3c72 183f
000001e0: 7541 753f c50d 143f 0c62 133f cf81 163f
000001f0: c832 483f 9f3c 1e3f 0bc8 3c3f 82f2 2b3f
0.61834145 0.6855722 0.768388 0.49340874 0.825438 0.86675066 0.6785309 0.7945626
0.9731656 0.6444767 1.116399 0.89547753 0.8442461 0.71674776 0.60278594 0.79392713
0.8900738 0.58260214 0.6614199 0.54734373 0.88220775 0.5590948 0.77655494 0.6248635
0.79862595 0.3707431 0.52815604 0.8701853 0.6193947 0.7737468 0.82024896 0.80043435
0.90132934 1.0454795 0.74345297 0.9005018 0.9215998 0.86006314 0.86724883 0.6593641
0.6889766 0.5954569 0.71630085 0.60193956 0.7412745 0.70300025 0.7690415 0.5192001
0.85688245 0.61506885 0.65051955 0.8728687 0.84131587 0.6228063 0.6465985 1.0752566
0.7884431 0.8654382 1.0779889 0.7957748 0.8009467 0.76936007 0.85443026 0.78543246
0.47902948 0.840455 0.96702623 0.66186494 1.0422182 0.53289443 0.60731137 0.8090686
0.84963715 0.5421404 0.82915527 0.7923544 0.8151317 0.8950109 0.649088 0.858059
0.6894103 0.72555465 0.69688654 0.6732456 0.6878199 0.6357277 0.6754673 0.6724874
0.8581904 0.8300963 0.56202155 0.4517912 0.5008034 0.85569596 0.6908514 0.72914803
0.50131214 0.88162655 0.67284423 0.67259824 0.737971 0.6713532 0.7296249 0.5395961
0.8358026 0.79973984 0.8229448 0.73475456 1.0749426 0.92480147 0.8998673 0.80894065
0.85820013 0.6459928 0.6369733 0.49395233 0.46812233 0.84948176 1.0588305 0.5954931
0.95803005 0.5783351 0.5757148 0.5879182 0.78202486 0.6181125 0.7374274 0.6716691

bn1.bias f4 [128]
00000000: 95e2 a4be 71b2 6abe 1548 a4bd 0354 4fbe
00000010: d28b 84be 2e7d 09be fa27 cdbd 7557 55be
00000020: 6d7b d7be 200c 5bbd 1502 42be fed9 68bd
00000030: 0347 45be 2252 e7bd 26e7 29be 57cb 61be
00000040: 66d2 d4bd 37a7 00be 2de0 8bbd 436d 0dbe
00000050: 406a c0bd fecb 98be b4e5 55be d10d 08be
00000060: d686 56be 9488 84be c64e 0dbe 27b0 6cbe
00000070: f126 0fbe 2a13 cdbe e975 3fbe 5abd 91be
00000080: 4c7d 05bc 9d23 553e b25b 1e3d 67bb ba3b
00000090: 9e1a a5be da50 a4bd a653 c0be 2ad1 80be
000000a0: d260 7c3c db84 f3bd addf 5dbe 9368 f8bd
000000b0: e942 e6bd fc34 e4bd 55c8 063c 80a6 10be
000000c0: aa8c 8a3e 2fcb 223d 598b 0d3b 045f aabd
000000d0: 1ca2 a5be 865b adbe 8256 7f3d 462b c2bd
000000e0: 5416 2ebe 7fcc 35be 6555 353d 4efc 7fbe
000000f0: 3d1b 1bbe e415 51bd d0c9 b4bd 6270 2cbe
00000100: bc6a 52be 5269 89be 9c7e a4be 45b3 90be
00000110: 70f5 cbbe 6ec8 29be 3b8f 413d 4621 31be
00000120: fe74 f8bd 419a 5dbe d0c5 a7be d864 33be
00000130: 940d 5dbe 3865 1abe 6f09 22bd de96 08be
00000140: 76f4 453d 4d20 81be e3ec 12be 234e 9ebe
00000150: cef1 1cbe 7ac3 1c3d 89e9 10be d2e6 87be
00000160: a177 11be 6b26 42be 01b7 dcbd f50b 89be
00000170: 1c9a dabd d6fa a4bd 9e09 09be 26e6 86be
00000180: 2313 59be e2e1 b1be 2a8a d1bd eaa9 cb3d
00000190: a2ec ebbd 0b25 c8bd 5a17 29be 88aa 11be
000001a0: 5cde 1fbe 148d 543d e2cd 93be ce9c 833c
000001b0: 2d9b a3be 1d8d abbe 6490 29be bd6e 41be
000001c0: 9a59 1bbe 2600 b1bc 0a6b 7fbe f040 c6bd
000001d0: b186 35be 4ca4 9ebd 729e b9bd a807 22be
000001e0: 5f7c a6be 1a68 90be 6dd7 9bbe 9415 0dbe
000001f0: 4730 a5be abfd 6abe fce9 32be e1af 72be
-0.32204118 -0.22919632 -0.08021561 -0.20246892 -0.25887924 -0.13426659 -0.100173905 -0.20834143
-0.42086354 -0.05347836 -0.18946107 -0.05684852 -0.1926537 -0.112949625 -0.16592082 -0.22050224
-0.10391693 -0.12563787 -0.068298675 -0.13811211 -0.093952656 -0.29843134 -0.20888406 -0.1328652
-0.20949873 -0.2588545 -0.13799581 -0.23114072 -0.13979699 -0.40053684 -0.18697323 -0.28464776
-0.008147549 0.20814367 0.038661666 0.0056986096 -0.3224687 -0.08023234 -0.3756382 -0.2515958
0.015403943 -0.118905745 -0.21667357 -0.12129321 -0.11243231 -0.111429185 0.008226474 -0.14126015
0.27060443 0.039744552 0.002159795 -0.08318904 -0.32350242 -0.3385889 0.06233836 -0.0948091
-0.17000705 -0.1775379 0.04427089 -0.2499859 -0.1514711 -0.051046267 -0.08827555 -0.16839746
-0.20548528 -0.26838166 -0.32127845 -0.28261772 -0.3983569 -0.16580364 0.047255736 -0.17297849
-0.121316895 -0.21640874 -0.32768106 -0.17518938 -0.21587211 -0.15077674 -0.039559778 -0.13338801
0.04832884 -0.25219956 -0.14348178 -0.3091899 -0.15326616 0.03827236 -0.14151587 -0.2654329
-0.14205791 -0.18959968 -0.10777093 -0.26766935 -0.10673925 -0.08055656 -0.13382575 -0.26347464
-0.21198706 -0.34742647 -0.10231431 0.09944518 -0.115197435 -0.097726904 -0.16512814 -0.14225209
-0.15612167 0.051892355 -0.28868014 0.016065981 -0.31954327 -0.33506098 -0.16558987 -0.188899
-0.15170899 -0.021606516 -0.24943176 -0.096803546 -0.17727162 -0.07746181 -0.09063424 -0.15823233
-0.32516763 -0.28204423 -0.30437794 -0.13777763 -0.32263395 -0.22948329 -0.1747207 -0.23699905

bn1.running_mean f4 [128]
00000000: 9f9e 683f 376e 6bbf 8820 a43e 80bd ee3f
00000010: df30 08bf 6621 c3bf 24b8 3bbe b316 4140
00000020: a481 043f 5806 f6ba faad fb3f ba0f 783e
00000030: d247 1240 b182 843f 4982 abbe c84d f13f
00000040: a7c6 e93f 66ee d33f fede 15c0 a362 543f
00000050: bc8d d4bd 3cab 0c40 3ae4 a8be 3793 713f
00000060: 95c4 1540 0f3d 56be a748 a9bf f033 91bf
00000070: b6ef 5e40 a8d4 603e 1693 8f3e 2404 96be
00000080: 2240 463f c15c 0440 90d3 e33d da2d 463e
00000090: caa3 ebbf dd8d 79bf 8871 70bf 1549 20bf
000000a0: 628a 4640 82df 753f f66a 2fc0 164c a4bf
000000b0: 325c 0ac0 91f3 a1bf 02a6 b83f 4fe5 2d3f
000000c0: 0950 983f afc1 d53f 6a07 22c0 6dec 053e
000000d0: c5e6 413e 6f15 df3e 1f16 023f 3a2b 4940
000000e0: e4c2 4ec0 1d84 7bbf e289 ccbe f5af ec3f
000000f0: 203a 413f fdb3 20c0 6e28 933d 6b3c ca3e
00000100: abba 5bbf ce0a 6cbf 5e27 fa3f 6126 db3e
00000110: 1521 41c0 800c 02bd 8a87 dfbf 95f1 8e3f
00000120: 903d a0bf 34ec 3dbf 12da 4c40 c65b 7bbe
00000130: 3921 9bbf 2e66 4fc0 7339 ee3e b295 a03f
00000140: 7f95 a73f c281 2740 a4ab 383d b134 89bd
00000150: 4025 84bf 0bc1 19bf 2b88 1b3f ea4d 213f
00000160: 7ed3 a9bf 5bbc 5e3f aa9c 08c0 b5f6 c33f
00000170: 6e63 35bf 9597 233e 690f ebbf 44fe e2ba
00000180: 1781 00bf 4f41 23bf aa5e 9bbf 6b3e 843f
00000190: 3127 f3be fb38 943f 0ddf bdbf 57ff ecbf
000001a0: 84ab c43e 1d5b e33f 327a cdbf 9752 f2bf
000001b0: e0a4 a03f dcac fcbf 92f6 fd3f 46fa 83bf
000001c0: cb5b fc3e c5f2 83be a275 2d3f 825d d63f
000001d0: 4e31 b83e 20e8 9f3f d4d1 63bf 6227 54bd
000001e0: 17da f2bf 69bf d93f 81c3 9cbe 760d ae3f
000001f0: 4eeb 2cc0 0327 ce3f e2c1 3ec0 df70 bebf
0.90867037 -0.9196505 0.3205607 1.8651581 -0.5319957 -1.5244567 -0.18331963 3.0170105
0.51760316 -0.0018770201 1.9662468 0.24224749 2.2856336 1.0352384 -0.33497837 1.8851862
1.8263749 1.6557128 -2.3417354 0.8296301 -0.10378596 2.1979513 -0.32986623 0.9436526
2.3401234 -0.2092173 -1.3225297 -1.1343975 3.4833808 0.21956122 0.28041905 -0.29300034
0.7744161 2.0681612 0.11124337 0.19353428 -1.840936 -0.9748209 -0.93923235 -0.62611514
3.1021962 0.9604417 -2.7409034 -1.283572 -2.1618772 -1.2652456 1.4425662 0.6792802
1.1899425 1.6699733 -2.5317025 0.1307847 0.18935688 0.4357104 0.50815004 3.1432633
-3.2306452 -0.98248464 -0.39948946 1.8491198 0.75479317 -2.5109856 0.07185446 0.3949922
-0.8583171 -0.92203987 1.9543264 0.42802718 -3.0176442 -0.031750202 -1.7463238 1.1167475
-1.2518787 -0.7418854 3.20081 -0.24546728 -1.2119514 -3.2406116 0.46528205 1.2545683
1.3092498 2.6172948 0.045085564 -0.06699503 -1.0323868 -0.60060185 0.6075465 0.6300951
-1.3267667 0.8700616 -2.134562 1.5309664 -0.7085484 0.15975793 -1.8364078 -0.0017318209
-0.50196975 -0.6377153 -1.2138264 1.0331548 -0.47490838 1.1579889 -1.4833695 -1.8515424
0.38412106 1.776218 -1.6052916 -1.8931454 1.2550316 -1.9740252 1.9840872 -1.0310752
0.49288782 -0.25771156 0.6775762 1.6747286 0.35975116 1.2492714 -0.8899205 -0.05179537
-1.8972806 1.7011539 -0.30617908 1.3597858 -2.7018619 1.6105655 -2.9805837 -1.4878196

bn1.running_var f4 [128]
00000000: 1f7f 193f 69ad 2c3f bbe0 753f 3cb0 893f
00000010: d04c b63f d5cb 093f 2a66 6f3f 9fb4 6e3f
00000020: 1ed3 3d3f 0cf0 0b3f bb4b 553f 11bf 5e3f
00000030: 3908 b63f 2324 673f 0a89 d93e d82d d73f
00000040: 7f5f 3040 4f6b 3b3f 1a7f 5f3f 4070 fa3e
00000050: 2713 633f ae55 7e3f b40b 323f 5658 303f
00000060: e2f1 7c3f d652 383f b34e 473f 5ae7 0840
00000070: 4369 373f 90ef 4c3f 2b4e 523f 1396 d83e
00000080: d7b5 ac3f 0f5a 693f 7b70 603f 4b25 a33f
00000090: 2d23 9f3f c0ab 963f c124 b73f ec26 d63e
000000a0: 7900 bc3f 330f a33f b152 0d3f 2d72 3b3f
000000b0: dc40 613f bee4 923f 6beb 883f 7edd 613f
000000c0: 8675 c43f 90ad 633f 059d 403f a752 493f
000000d0: b6c5 0940 b673 be3e 7f41 753f bf17 893f
000000e0: 6435 903f 5921 483f 0b9f 493f 2682 9d3f
000000f0: 82ff 973f 192c 8f3f 38aa 303f 0abc 283f
00000100: 2b67 e33e f953 4e3f 1be6 4f3f 5264 d53e
00000110: a8ac 463f bff2 4c3f 6d75 ac3f 88ae 593f
00000120: b008 a93f 0fe6 fe3e 70e3 af3f aa53 9d3f
00000130: 785a 723f e706 bc3f 73ca 873f 09d0 0d3f
00000140: 1fe4 183f 9712 ad3f d9e8 2e3f bb17 e83e
00000150: ca08 5d3f c526 0240 3e9a a03f 09ab 1d3f
00000160: dad2 a43f 2c00 af3f 3bea 723f bfa4 1c3f
00000170: a7fa d43e 981f 0d3f d2d2 613f c799 1c3f
00000180: b6d3 543f 74ac 3d3f 0775 723f 9e9a d33f
00000190: ebec 613f 05a1 943f c867 093f e03d a03f
000001a0: 4ca4 8f3f a818 1c3f 5c10 203f 794e 383f
000001b0: 98d7 873f 3292 893f fe07 ac3f c6ed 023f
000001c0: 6bae 9b3f 8c8a c83f 865f 633f 2c35 843f
000001d0: 8d4a 113f bb15 eb3e 9661 0a3f 5bba 343f
000001e0: 7fad 373f 03a1 443f b9a6 3f3f ee8d 633f
000001f0: d158 b13f 354c 193f b14a f23e 1ca3 3c3f
0.59959596 0.674521 0.96046036 1.0756907 1.4242191 0.5382665 0.93515265 0.93244356
0.74150264 0.5466316 0.8331868 0.87010294 1.4221259 0.90289515 0.42487365 1.6810865
2.7558286 0.73210615 0.87303317 0.48913765 0.887011 0.99349487 0.6954911 0.6888479
0.98806584 0.720014 0.7785446 2.1391206 0.7164499 0.80053043 0.82150525 0.42301998
1.3492993 0.91153044 0.8767163 1.2745756 1.243261 1.1771164 1.4308091 0.4182657
1.4687644 1.2739013 0.552043 0.73221093 0.8798959 1.1476057 1.0696844 0.88228595
1.5348365 0.8893671 0.7523959 0.7864174 2.1526923 0.37197655 0.95803064 1.0710372
1.1266294 0.78175884 0.78758305 1.2305343 1.187485 1.1185333 0.69009733 0.65911925
0.44414648 0.8059688 0.8121049 0.416781 0.776072 0.800579 1.3473336 0.8503194
1.3205776 0.49784896 1.3741283 1.2291157 0.94669294 1.4689606 1.0608658 0.5539556
0.59723085 1.3521298 0.6832405 0.45330605 0.86341536 2.0336163 1.2547071 0.61589104
1.2876847 1.3671927 0.9488866 0.6118888 0.41597483 0.55126333 0.8821231 0.61172146
0.83135545 0.7409127 0.9470982 1.653156 0.88252133 1.1611639 0.5367398 1.2518883
1.1222014 0.6097512 0.6252496 0.7199474 1.0612669 1.074774 1.3439939 0.51144063
1.2162603 1.5667281 0.8881763 1.0328727 0.5675438 0.45915017 0.54055154 0.70596856
0.7174911 0.76808184 0.74863774 0.8888844 1.385523 0.5988191 0.4732261 0.73686385

fc2.weight f4 [64, 128]
00000000: 83c5 c63d b091 6abd 44f4 073e 914a 7fbd
00000010: c182 c5bd 79c2 983d a3d3 3f3d 4461 6cbe
00000020: c98c 82be 22ef 2d3d 3727 d93d d74b 9dbc
00000030: 19d0 22be 0aa4 84bc 0ec4 763d 7c77 a2be
00000040: 8d08 96be 2751 16be 0c04 363e 6b58 20be
00000050: 6b83 bcbd ffc0 e63d b2a6 0e3e a616 1cbe
00000060: 2b5b acbc 2c09 6d3d dc95 863b c13a 8fbd
00000070: c1a8 0ebe 3c25 603d 62c4 10be a800 433e
00000080: 25d5 6dbd 7273 2e3e 9171 343e 7e3b cabe
00000090: ae84 e73d f898 243e d391 13bd 4460 223b
000000a0: dad2 d4bb da14 3cbd 10ab 003e ee37 d13d
000000b0: d5ef 0f3e 320a 213e adfa fabd 79da 673e
000000c0: 3b72 703d 0d23 e0bd b227 d23e 7eaa aabe
000000d0: 23c8 68be 3fc1 70bd 9921 553d 39bb 313e
000000e0: 2913 4d3e 0be1 42bd ebc2 233e 7ef9 66bd
000000f0: 3ba8 91be dc9f 7b3d 7fc4 3abe 1c79 913d
00000100: 95c1 c3bd 97b1 61be d644 d0bd e8d3 683b
00000110: e74b 483d eccb ee3d 9585 df3d 52e7 3cbc
00000120: c6b2 5bbd 6c16 07be 21e5 603c 0289 b1bd
00000130: 79dc 0bbe d3b0 5b3d b49d fbbc 0c76 31be
00000140: 812a 07be 7557 6dbd 1ec5 123e 0ef1 d63d
00000150: c6a8 203d 4648 da3d 28f5 8c3d bb3b cfbb
00000160: e627 d8bd 1fa1 b2bd c486 a83b b3ef cfbc
00000170: 2485 9a3c 900e fa3d e5ef 0bbd 99e1 953e
00000180: c353 3cbd f2f7 9cbd 072c 80bd 7ac8 02bd
00000190: 5aab 3e3b b368 913c ceab e83c b839 75bc
000001a0: d55d 7cbd 4c5f b73d 7f7b 90bd aa78 0b3d
000001b0: b34a b2be efb2 9a3d fdbd 5ebe ed9f 1ebb
000001c0: 17c1 833d 279b 0f3d 3bf0 b83d 5e9c b33d
000001d0: 2fea 17be 08e9 3abe 9ef5 20be 1655 133e
000001e0: b0b4 81bd 9f9d 76be 89e7 193e 1873 143e
000001f0: 19f1 d03c 40cd e2bc 5458 93bd d143 f23c
00000200: 188f 6dbd b77b 90be 6df8 36be 51d0 8f3c
00000210: 8b1c ef3c ec8d 17bc 4312 3fbe 8e0f a7bd
00000220: e39a a63d a9ec 643b e744 ebbd b95e 573e
00000230: 2cc4 00be 95ea 873d 5176 f73c a63c 943c
00000240: 5c60 aabb 0425 a3bd 9c5b a93d 6c9b eebd
00000250: 76fb 83bd 8057 293d 701c 18be 0ed1 37be
00000260: b495 3e3c 0927 3cbc d062 40bd b68d 903e
00000270: 0a6d 77bd 96b7 4d3d 7b70 01bd 50c5 06bd
00000280: b262 813e dfb1 103d 3ac9 9e3b c3a4 e6bd
00000290: e498 a53d 8ac1 43be b0cf 673c dd3f 03bd
000002a0: 64f7 263d 4624 18bd e81f ab3d c5ba bd38
000002b0: b13e 8ebe ca83 9f3d 06a9 b93d 2b99 acbd
000002c0: 51e7 09be b181 873c 0ed8 21be 437d 033e
000002d0: 81f3 59bd c830 543e 8fc2 0dbe 16ce 1cbe
000002e0: 5b11 13be 713e 343c e2bb 8bbc 5a3e d43d
000002f0: 6e72 4bbe 0242 bd3d c79d e0bd 2b7f 83bd
00000300: 87f8 c8bd 931c b5bd 8c38 51bd b387 7e3d
00000310: 22b2 1c3e 2074 4bbe c8ad a53d 318c 50be
00000320: 63ca 723e 4a9f e73b a0ff 17b9 3b80 453e
00000330: 1b79 8abe 804d 09bd 9708 8fbd 2f31 0bbe
00000340: 1340 78bd d60d c3bd ffc7 97be b2a6 593e
00000350: 057e c9bc 9176 9dbc e924 cabd de48 edbc
00000360: 7056 ec3d 6790 113e 026c a5bd ad04 11be
00000370: 2154 52bc 02ed fbbc 0659 563d c3fb ea3d
00000380: b015 e4bd 2306 1c3c f83f 783d 054b 80be
00000390: 615b 42be 56d9 f2bd f61f 9f3e 4363 753d
000003a0: 4165 62be 6491 5c3c 6717 38be 6f37 bc3c
000003b0: 9a8b df3c 4626 ebbd 86a0 20bd 0a20 183e
000003c0: 56a4 be3c 07bc ccbd 912c 873e e637 05bc
000003d0: 7664 80bc 8116 223e b951 6a3e 26b1 033e
000003e0: 8d3c 2bbd b2b4 fabb 03d0 383d 38ce c7bd
000003f0: d9a5 f4bd 2c13 d7bd 96fa fabd efbd dc3d
0.09705641 -0.057267845 0.13276774 -0.06232697 -0.0964408 0.07458968 0.046832692 -0.23083979
-0.25498036 0.042464383 0.10603183 -0.019201202 -0.15899695 -0.016191501 0.060245566 -0.31731784
-0.293034 -0.14679395 0.17774981 -0.15658729 -0.092047535 0.1126728 0.13930777 -0.15243015
-0.021039566 0.057870075 0.00410722 -0.06993628 -0.13931562 0.05472301 -0.14137414 0.19043219
-0.0580646 0.17036226 0.17621447 -0.39498514 0.113046035 0.16073978 -0.03602774 0.0024776617
-0.006494862 -0.045918323 0.12565255 0.10215746 0.14056332 0.15726545 -0.12254844 0.22641934
0.05870269 -0.109441854 0.4104591 -0.333332 -0.22732596 -0.058778044 0.052033994 0.17356576
0.2002684 -0.0475779 0.15992324 -0.056390278 -0.28448662 0.06143175 -0.1823902 0.07103178
-0.09558407 -0.22040401 -0.101693794 0.0035526697 0.04890051 0.11659989 0.109141506 -0.01152976
-0.05363729 -0.13192147 0.013726504 -0.0866871 -0.13658322 0.05363543 -0.030714847 -0.17330188
-0.13199808 -0.057944734 0.14333007 0.10495196 0.039223455 0.10658316 0.06882697 -0.006324259
-0.10554485 -0.08722138 0.0051430184 -0.025382852 0.018862315 0.12209809 -0.034164328 0.2927368
-0.04597832 -0.07664479 -0.062583975 -0.03192947 0.0029093833 0.01775012 0.028402235 -0.0149673745
-0.061612923 0.08953723 -0.07054805 0.03405062 -0.34822616 0.0755366 -0.21752162 -0.002420421
0.06433313 0.035060074 0.09030195 0.08770059 -0.14835428 -0.18252957 -0.15718696 0.14387926
-0.063332915 -0.24083565 0.1502973 0.1449703 0.02550559 -0.027685761 -0.07194582 0.029573353
-0.057997793 -0.28219387 -0.17868204 0.017555388 0.029188415 -0.009250145 -0.1865931 -0.08157264
0.08135011 0.00349311 -0.114877515 0.21032228 -0.12574834 0.0663654 0.030207785 0.018095326
-0.005199475 -0.079660445 0.08269426 -0.11650738 -0.06444447 0.041343212 -0.14854598 -0.17950842
0.011632372 -0.011483916 -0.046969235 0.28233117 -0.060406722 0.05022391 -0.03160141 -0.032903016
0.2527061 0.03532588 0.0048457654 -0.112618946 0.08085802 -0.19116798 0.014148638 -0.032043327
0.040763274 -0.037143968 0.08355695 9.047011e-05 -0.27782205 0.07788809 0.09065442 -0.08427652
-0.13467146 0.016541334 -0.15805075 0.12840752 -0.05321074 0.20721734 -0.1384375 -0.1531299
-0.1436209 0.011001215 -0.017057363 0.10363455 -0.1986787 0.092411056 -0.10967594 -0.0642074
-0.09813028 -0.08843341 -0.051079318 0.06214113 0.15302327 -0.19868517 0.08089787 -0.20365979
0.23710017 0.0070685493 -0.0001449571 0.19287197 -0.2704552 -0.033521175 -0.0698406 -0.13592981
-0.06060798 -0.09524123 -0.29644772 0.21254995 -0.024596224 -0.019221576 -0.09870321 -0.02896541
0.11539924 0.14215241 -0.080772415 -0.1416194 -0.012837441 -0.030752663 0.052330993 0.11473801
-0.11136949 0.0095229475 0.06060788 -0.25057235 -0.18980171 -0.1185786 0.31079072 0.059909116
-0.22108938 0.013462398 -0.17977677 0.022975652 0.027288247 -0.114819095 -0.039215587 0.14855972
0.02327172 -0.09996801 0.2640119 -0.008131003 -0.015672904 0.15828897 0.22882737 0.12860546
-0.041805793 -0.007650935 0.04512025 -0.0975613 -0.119456954 -0.105017036 -0.12254827 0.107784145

fc2.bias f4 [64]
00000000: 28fa 83b6 6958 3db6 7940 39b6 00ce b736
00000010: bee2 6e36 5ec5 43b6 01c1 a1b5 9b44 0536
00000020: e426 95b5 1402 1437 e43f 41b6 b699 0f37
00000030: 52b8 4037 b5f3 1236 02b0 35b7 aa2c 17b6
00000040: 6893 a0b5 6675 05b6 9677 72b5 b910 3e36
00000050: e231 4f36 08e3 7635 9e07 e335 f414 0436
00000060: c0cc 2fb5 72cf c7b5 84f3 d035 a425 bfb4
00000070: 6e04 e135 105a e333 726c f2b6 60e1 5235
00000080: 0782 0637 060b ac36 fa06 2db6 88b0 a737
00000090: 6756 b6b6 3863 9535 cc47 f435 9c57 dbb5
000000a0: 74ff 2436 5a12 57b6 fbba a9b7 203f f234
000000b0: 20cc 95b5 d607 edb6 20bb 1237 13f6 8036
000000c0: b4de 8236 d258 61b6 61d7 2b36 0028 e433
000000d0: c691 0536 0c94 75b6 335b 8ab7 9056 20b5
000000e0: e565 53b6 9961 29b6 3bcd c536 d7db 50b6
000000f0: b015 0934 2561 15b6 c8ed b036 c62a 4236
-3.9332263e-06 -2.8214656e-06 -2.7604676e-06 5.4778066e-06 3.5596745e-06 -2.9172147e-06 -1.2051606e-06 1.9858478e-06
-1.1112684e-06 8.821971e-06 -2.879643e-06 8.559253e-06 1.1487007e-05 2.1897552e-06 -1.0829421e-05 -2.2526751e-06
-1.196383e-06 -1.988688e-06 -9.0326046e-07 2.832194e-06 3.087444e-06 9.1972515e-07 1.6915035e-06 1.968173e-06
-6.549053e-07 -1.488703e-06 1.556808e-06 -3.560391e-07 1.6765096e-06 1.05868935e-07 -7.2247867e-06 7.855906e-07
8.017297e-06 5.1272827e-06 -2.578307e-06 1.9990155e-05 -5.4340812e-06 1.1130242e-06 1.8200312e-06 -1.6342269e-06
2.4586598e-06 -3.2048179e-06 -2.023344e-05 4.5121942e-07 -1.1160773e-06 -7.0640626e-06 8.745847e-06 3.843344e-06
3.900228e-06 -3.3579313e-06 2.5606353e-06 1.0624353e-07 1.9903396e-06 -3.659402e-06 -1.649335e-05 -5.973061e-07
-3.150076e-06 -2.5239772e-06 5.8949495e-06 -3.112238e-06 1.2767009e-07 -2.2259276e-06 5.27289e-06 2.893315e-06

bn2.weight f4 [64]
00000000: df69 2d3f 41f8 483f 1586 3c3f 233b 033f
00000010: efa9 4e3f 1f3d 323f 8b45 353f 8520 4f3f
00000020: 68d0 603f e474 613f de5a 703f 3368 513f
00000030: 9107 083f 00a8 333f 550f 733f a65b 203f
00000040: d335 653f 8484 3e3f d34b 103f 6bb6 6c3f
00000050: 7e6e 193f 9a32 1f3f 8c79 373f 4360 303f
00000060: 1430 313f 5b50 293f a13f 253f bc25 263f
00000070: 1f5e 153f d576 253f ff2b 443f 5571 323f
00000080: 82e8 463f 9b5b 233f 7f0e 773f 9a26 573f
00000090: 9ebe 5c3f 4404 3c3f f3a7 383f f7e2 4c3f
000000a0: cc8d 4f3f 03c7 3b3f d92f 7f3f 0ef1 6c3f
000000b0: 29b9 813f 8970 583f a13f 643f 5b2f 273f
000000c0: 3cfb 253f 37e8 3a3f 8715 253f 43a5 483f
000000d0: 9047 2d3f 687c 373f 5754 753f dcb9 813f
000000e0: f17b 403f 4565 263f 73c6 7a3f 9af5 293f
000000f0: bbaf 373f 32bc 833f e0ed 763f 33f8 243f
0.6773967 0.78503805 0.7364209 0.5126211 0.8072805 0.69624513 0.7080924 0.80908996
0.87818 0.88068986 0.9388865 0.8179962 0.53136545 0.7017822 0.9494527 0.62639844
0.89535254 0.7442095 0.563657 0.9246585 0.5993422 0.62186587 0.7166984 0.68896884
0.69213986 0.6613824 0.64550215 0.6490133 0.5834674 0.6463445 0.7662963 0.6970418
0.7769853 0.63811654 0.96506494 0.84043276 0.8622836 0.7344401 0.7213127 0.8003382
0.8107574 0.7335054 0.99682385 0.9255532 1.0134631 0.84546715 0.8915959 0.65306634
0.6483648 0.7301058 0.64485973 0.7837717 0.6768732 0.71674204 0.9583182 1.0134845
0.7518912 0.64998275 0.9795906 0.66390383 0.7175252 1.0291808 0.9645672 0.6444122

bn2.bias f4 [64]
00000000: d173 cc3e 73ea c23d fefa 27be 005d cc3b
00000010: a89b 7dbc 287d 50be 3b7f b03c cbeb b6bd
00000020: 8d7d 1dbd 8a09 25bd 30bc 673e a0d7 5cb9
00000030: 60f8 f0bd 1af1 8dbd 8008 b33e e42f 35be
00000040: d4b8 c83d 4200 9c3d defd 14bc a266 c43d
00000050: 8d6c 5fbe a549 91be 23d2 cfbd 8e1a 543e
00000060: 0cea e2bd 182f c43d 8ccf 6dbe b621 7ebe
00000070: 710b 81be 853b 7dbe bb81 a03e b4b4 763e
00000080: 91f3 963e bac1 45bd a1d5 4bbd 66ae b0bb
00000090: 89b8 35be 81f8 36bd 2b0c 5b3d 930e cf3d
000000a0: b61c a23c 71bf 1fbe 5895 0b3e 80c4 fa3d
000000b0: 0faf 833e 5667 fdbd 89db 3c3e 6a47 86be
000000c0: 0d70 53be 395b 04be 58e3 a3bd 3ea8 1dbe
000000d0: be27 01be 37a4 4ebe 4c36 bf3e 2edb 043e
000000e0: ed7a 633c e012 18be 48ff 353e e5bb 39be
000000f0: 0632 543e 8bd4 453e d1a7 9d3e 5e44 fdbd
0.3993211 0.09517374 -0.1640434 0.0062366724 -0.015479006 -0.20360243 0.021545043 -0.08931693
-0.038449813 -0.0402923 0.22630382 -0.00021061162 -0.11766124 -0.06930752 0.34967422 -0.1769405
0.09800878 0.07617237 -0.00909373 0.09589888 -0.21818753 -0.283765 -0.10147502 0.20713255
-0.11079797 0.09579295 -0.23223704 -0.24817547 -0.25204042 -0.24729736 0.31348976 0.2409237
0.294827 -0.048280455 -0.04976428 -0.0053918837 -0.17746176 -0.044670586 0.0534784 0.10110202
0.019789081 -0.15600373 0.13631189 0.12244511 0.25719497 -0.123732254 0.18443121 -0.2622636
-0.20648213 -0.12925424 -0.08002347 -0.1539621 -0.12612817 -0.2017983 0.37346113 0.12974235
0.013884288 -0.1485095 0.17773163 -0.18138082 0.20722207 0.1931936 0.30792096 -0.12366556

bn2.running_mean f4 [64]
00000000: c54e c3be 3875 d7be e99c 18bf 41ca 233e
00000010: b4f6 bb3e 5002 21bf 2a0c 38bf 1903 543e
00000020: 10a2 bdbe 5222 2cbf 8ef3 3bbf fdad 063f
00000030: 01ec 1bbf 37d8 96bc ef56 29bf 5d79 5bbd
00000040: 51c8 e6bf 0682 b2be 9b7c 42bf 8528 53bf
00000050: 59c5 9cbe a92c 543f 2483 163f 0340 21bf
00000060: 84ee 353e 206e b7be 805d 243f cd90 ca3d
00000070: 3882 033e 5611 3e3f eed9 063e 8e03 5abe
00000080: 5236 b5be f1e8 55bf a506 b7be 4d55 89bf
00000090: 0bd3 92be c7f8 b0be eb59 543f 827d 8f3e
000000a0: 9cb8 07be 3fad d2bf 9c92 dabe 7b3d 9e3d
000000b0: 2b52 cbbf af64 b9bf 32bb 003f 963d e6be
000000c0: c930 dc3c 8c5f 70bf 7991 fc3e 2dec 68bd
000000d0: 5766 b5bf 14aa a03c 0a00 23bf 48a8 e23d
000000e0: ce40 98bf 7ef2 b1bd a5d1 423e 6e6c 1cbf
000000f0: f7b9 aebe 199b eebc 49fb c3bd b1b4 6cbe
-0.38146034 -0.42081618 -0.59614426 0.15995122 0.36711657 -0.62894154 -0.7189356 0.20704307
-0.37037706 -0.6723987 -0.7341851 0.52609235 -0.6090699 -0.018413646 -0.66148275 -0.053582538
-1.8029882 -0.34864825 -0.7597138 -0.824837 -0.30619314 0.82880646 0.58793855 -0.629883
0.17766768 -0.35826206 0.6420517 0.098909 0.12842643 0.742452 0.13169071 -0.21290419
-0.35393006 -0.83558565 -0.35747257 -1.0729157 -0.28676638 -0.34564802 0.82949704 0.28025442
-0.13254017 -1.645912 -0.4268998 0.0772657 -1.5884451 -1.4483851 0.5028564 -0.4496886
0.026878731 -0.9389579 0.49329737 -0.05686586 -1.4171857 0.01961235 -0.63671935 0.11067253
-1.1894777 -0.0868883 0.19025286 -0.6110295 -0.34126255 -0.02912669 -0.09569413 -0.23115803

bn2.running_var f4 [64]
00000000: eac2 2340 f740 0340 2c73 f63f c13d 1b3f
00000010: 0e22 4540 1573 9b3f e290 1240 e13d 4740
00000020: 6870 6440 580f 1b40 f8b1 0640 c2d8 2f40
00000030: 63fb 813f 28f0 d73f f561 2c40 8d56 f53e
00000040: 9388 7340 15ad 2640 f088 8b3f 89d8 8840
00000050: eaff 593f dec1 8d3f b9af 5c3f 8868 d33f
00000060: 1d17 f63f ac45 183f d1e4 a73f 5ffd 923f
00000070: 697f 1c3f e485 853f e8cd 6740 06b6 8b3f
00000080: 72ba 6540 2718 cf3f 1c32 8140 d214 4c3f
00000090: eb58 7840 b5f1 ac3f 79c4 e33f d23e 5a40
000000a0: 00c3 f43f 75bf bd3f 677d 2e40 7c58 1540
000000b0: 438f 3540 ea40 1f40 d3e9 2940 c703 d63f
000000c0: d822 9d3f b0fc 2140 4266 863f 8bbc 0e40
000000d0: c3be 2e40 d56a 953f 940a 8440 6319 4040
000000e0: c787 6e40 406c ed3f b395 4140 780b bc3f
000000f0: 135b ba3f c51f 8840 1f46 d43f a416 8a3f
2.5587716 2.0508401 1.9253898 0.60641104 3.0802035 1.2144495 2.290093 3.1131518
3.5693607 2.4228115 2.1046124 2.7476048 1.0154842 1.6870165 2.6934788 0.47917596
3.8052108 2.604314 1.0901165 4.2764325 0.8515612 1.1074789 0.8620563 1.6516275
1.9225804 0.5948131 1.3116704 1.1483573 0.6113191 1.0431485 3.6219425 1.0914924
3.5895047 1.6179246 4.037367 0.7971927 3.8804271 1.3511263 1.7794334 3.4100842
1.9122009 1.4824053 2.726404 2.3335257 2.836869 2.488337 2.6548965 1.6719903
1.2276258 2.5310478 1.0499957 2.2302577 2.7303932 1.1673228 4.1262913 3.0015495
3.7270372 1.854866 3.024762 1.4691 1.4559044 4.253878 1.6583899 1.0788159

fc3.weight f4 [15, 64]
00000000: de67 4cbc 8ad6 523d efa4 fc3d 5666 7fbd
00000010: 93a9 d43c 3c06 80bb 6242 043d 3b6a 993d
00000020: a501 a8bc 64f3 8e3c 8dbe c0bc c75b 9b3c
00000030: ba4f 51bc d5ec 78bd 6fb0 42bd fa34 89bc
00000040: 345a ee3c c978 b0bd bd4b 113d 217d 493d
00000050: bad5 a1bd 22b9 0f3b e4b0 87bd c4f2 12bd
00000060: 908d 29bd dddc 68bd e2d1 26be 4e8b 7cbd
00000070: 73db 5abe c3cb e73b f06e ba3a 2b6c 083d
00000080: 7f46 49bc c6c9 293d 64b7 a13d f80d 263e
00000090: b213 3b3d eb49 98bd f0ac 4dbd 2c37 7fbc
000000a0: 5dc1 a73d 8263 f63d 0d68 073d d6c4 943c
000000b0: 8a53 e0bc 6849 173c 943f 54bb 6c09 aebd
000000c0: 2e2f 52bc fc0c 4b3d 2d36 a93d 69c4 96bd
000000d0: 4ecc 803d 4771 633d 8497 9dbb f4ce 893c
000000e0: 22a1 b9bc 56d9 3dbc 32c0 34bd 2170 b4bd
000000f0: 6721 b53d a058 ab3c 0431 c8bb 00d2 04be
00000100: 2544 013d 2d83 14bd c56e 8abc 229a ff3c
00000110: 8bda a9bc 8d6d ae3c 91e4 283c 293d f9bc
00000120: 6a19 0fbc f10c ddbc c3ce cdbb c408 d3b8
00000130: 4265 9dbb c551 023d 4b93 e33b 7652 743b
00000140: abcf f13b b31e 3c3c 5ea0 ab3c 3e37 abbc
00000150: 7bb9 c13c 7197 193d 6e19 2c3c 6d1a 403b
00000160: f34f 953b e75d 383d 3795 013d 1af5 30bc
00000170: c9d4 e83b 1325 56bd 6dd9 9e3b eaf4 e23c
00000180: 8f41 84bc 3b9e b33b 831a dcbc ad8f 863b
00000190: 2df4 08bd 12b5 82bc 9568 c93b 1e93 c93a
000001a0: 4b87 62bc 93e4 ff3c bf3d b13b ba0f 10bc
000001b0: 4254 fb3b 9a17 0dbc 8b46 9cbc 21b5 183d
000001c0: 60bb 613c 11a5 4f3c e3f0 8bbc f710 a53c
000001d0: 0c48 2d3d 0be2 8ebc 08af a23b 4f9d 15bc
000001e0: 89df a5bc 261e 513c cafb eabb 397b ecbb
000001f0: 0ebe 9a3b 8a0d 17bb 8d15 9e3b a63b 86bb
00000200: c3c4 d2bc 7cb0 603d e0cb e43d f192 5fbd
00000210: 36fa cd3c 4e41 393d cf2b 223d 3f4a 8b3d
00000220: ceb6 d0bc 8da3 953b df3f 9dbc d78b d13c
00000230: 9e1b 883d 7281 b0bc eb1b 23bd 8021 1639
00000240: 74f9 2b3d 2969 babd 267d 4d3d d22d a43d
00000250: 9c4a 94bd 7831 583d 8fb2 56bd 0679 53bd
00000260: cb68 85bd 99ce 9dbd 574a dcbd e438 83bd
00000270: 4c59 24be 1b78 d93c 2c0e a43c 763c b33c
00000280: 9d0e 0ebc df1b 753d fc0d 923d 2b52 613e
00000290: b952 0f3d 835a 90bd 9eed 7fbd 4e6d b2bc
000002a0: 8848 8d3d 05e0 4b3e 6d5e c53c 0178 9b3b
000002b0: dfa7 7cbc d392 fa3b 4689 923c 3c3d b9bd
000002c0: f20b 98bc e4e0 db3c 80f4 943d 23b0 8bbd
000002d0: 1cfe bc3d d5d5 883d 2697 1dbc 8aac 863c
000002e0: 712d febc bdd8 90bc abaf 09bd 95ba 35bd
000002f0: 7292 ec3d fa82 5b3c f6a0 083c 9711 e0bd
00000300: b8eb 02bc b3f6 873d 091b 83bd e03a 05bd
00000310: 7cfc 573d 9856 a33d 3a16 ae3c 47f6 083e
00000320: 63c7 813d 51fe aebc 40d5 2cb8 524e 073c
00000330: b4b7 203e e1e1 e13d 7f4c 003c 1d2e aa3d
00000340: 2afa 96bc 19c8 77bc ad23 3a3d 0e38 4e3d
00000350: 9b91 893c 4064 243e 2346 6bbb 6c23 83bd
00000360: 5e83 30bc 6272 4bbd c5d2 bb3d fed8 9bbd
00000370: fc22 b83d 2abc fc3d 957d 8c3c 4bc6 79bd
00000380: d3df 64bb 83a4 743c a9be 2d3d e620 333c
00000390: 43a9 c03d 99c9 2b3c 1cb6 11bd 71cb a73d
000003a0: 5b0e 8d3c 9286 723d b867 59bb 35d9 abbc
000003b0: a942 893c f499 79bc 5694 0fbb c7d2 04be
000003c0: 7084 9bbd 5ef3 04bd a9c3 fe3c ad73 f5bb
000003d0: 828f dbbb e8a9 95bb ae69 a8bc 1445 553d
000003e0: dbab 333d ded4 5cbc e02c f13d 72fe b93d
000003f0: 594b 49bb 54ba 7f3c ade1 803c b813 9cba
-0.012475936 0.05147413 0.12336146 -0.062353455 0.025959766 -0.003906993 0.03228987 0.07490965
-0.020508597 0.017450042 -0.023528362 0.018964661 -0.012775356 -0.060772736 -0.04753154 -0.016748894
0.029095747 -0.08616788 0.03547262 0.049191598 -0.07902093 0.0021930416 -0.06625536 -0.03587605
-0.04139477 -0.056851257 -0.16291001 -0.06165629 -0.21372776 0.007073851 0.0014223736 0.033306282
-0.012284874 0.04145219 0.07896307 0.16216266 0.04567308 -0.07435974 -0.050213754 -0.015577119
0.08191178 0.12030698 0.033058215 0.018160265 -0.027383585 0.00923381 -0.0032386528 -0.08497891
-0.012828631 0.04957293 0.08262286 -0.07361681 0.06288968 0.05552795 -0.004809322 0.016822316
-0.022659842 -0.011587461 -0.044128604 -0.088104494 0.088442616 0.020916283 -0.0061093587 -0.12970734
0.03155913 -0.03625791 -0.016898522 0.031201426 -0.020734092 0.021292472 0.010308401 -0.030424671
-0.0087340865 -0.02698371 -0.0062807514 -0.00010062897 -0.0048033306 0.031816263 0.006945049 0.0037280596
0.0073794923 0.011481929 0.020950492 -0.020900365 0.023648014 0.03749794 0.01050411 0.0029312626
0.00455665 0.045011427 0.031636443 -0.010800624 0.007105444 -0.05228145 0.0048476965 0.027704675
-0.016144542 0.005481509 -0.02686811 0.004106483 -0.03343599 -0.015955482 0.0061465004 0.0015378927
-0.013826202 0.031236922 0.005408972 -0.008792812 0.0076699564 -0.008611584 -0.019076606 0.037282113
0.013777584 0.012673632 -0.017082637 0.020149691 0.042305037 -0.01744177 0.004964713 -0.009131744
-0.020248191 0.012763536 -0.007171129 -0.0072168377 0.0047223633 -0.0023048841 0.0048243464 -0.004096466
-0.025728589 0.05485581 0.111716986 -0.054583494 0.025143724 0.045228295 0.03959256 0.06801271
-0.025477793 0.004566616 -0.019195495 0.025579376 0.066458926 -0.0215461 -0.039821547 0.00014317594
0.041985944 -0.09102089 0.05016818 0.08016552 -0.07240793 0.052781552 -0.05241638 -0.05162909
-0.06514128 -0.07705421 -0.10756367 -0.064073354 -0.16049689 0.026546529 0.020026289 0.021879416
-0.008670476 0.059841033 0.071315736 0.22004001 0.034991 -0.07048514 -0.06248247 -0.021780636
0.068986 0.19909675 0.024092877 0.00474453 -0.015420883 0.0076468973 0.017887723 -0.09044883
-0.018560383 0.026840635 0.07273197 -0.06820705 0.09228155 0.0668141 -0.009618556 0.016439695
-0.031027528 -0.017681474 -0.033614796 -0.04436739 0.1155137 0.013397926 0.008339157 -0.10940855
-0.00799077 0.06638851 -0.06401641 -0.03252685 0.052731022 0.07975501 0.021250833 0.13375197
0.06336858 -0.021361502 -4.12066e-05 0.008258419 0.15695077 0.11029411 0.007830738 0.08309577
-0.018429834 -0.015123391 0.04544418 0.050346427 0.016793063 0.16053867 -0.003589996 -0.064032406
-0.010773508 -0.04966963 0.091710605 -0.07609747 0.08991048 0.12340577 0.017149726 -0.060980123
-0.0034923449 0.014931801 0.042418156 0.010933137 0.09407284 0.010485076 -0.035574064 0.081931
0.01721876 0.059210368 -0.0033173393 -0.020977596 0.016755419 -0.015234459 -0.0021908483 -0.1297103
-0.0759362 -0.032458656 0.031099157 -0.0074905963 -0.006700457 -0.0045673735 -0.020558205 0.05206783
0.043865066 -0.013478486 0.11776137 0.09081735 -0.0030715077 0.015608389 0.01573261 -0.0011907732

fc3.bias f4 [15]
00000000: b490 36be 92c1 7ebe 8a3f 353b 10fe bd3e
00000010: bb71 db3e 3385 1abe 6bb8 79be 7d61 06bd
00000020: a248 fc3d 0f58 3d3e f242 3bbd efdd 60be
00000030: fcb6 c43c bb95 55bd 4a97 96bd
-0.17828637 -0.24878529 0.002765628 0.37107897 0.42860207 -0.15089874 -0.24386756 -0.032807816
0.12318541 0.18490623 -0.04571814 -0.21959661 0.024013035 -0.052144747 -0.07353075
