snn/best_lif_snn_model.pth (torch, 152997 bytes, 14 tensors)

fc1.weight f4 [128, 208]
0	0x3cf8ec79	0.030386196
1	0xbcc05c3e	-0.023481485
2	0xbd3e1716	-0.046408735
3	0xbd2cad81	-0.042157654
4	0xbe401175	-0.1875666
5	0xbd9d0dc9	-0.07668645
6	0xbd26c58c	-0.04071574
7	0xbe56d3dd	-0.20979257
8	0xbca5f445	-0.020258078
9	0xbbd0e17e	-0.006374537
10	0xbd8e4496	-0.069466755
11	0xbe240c3f	-0.16020297
12	0x3e40193b	0.18759625
13	0x3dff2c19	0.12459583
14	0xbdae7318	-0.08518046
15	0xbe1a0961	-0.1504264
16	0xbc815e54	-0.01579205
17	0x3e8cbccf	0.274878
18	0x3e424870	0.18972945
19	0x3d9677c2	0.07347061
20	0xbdef803c	-0.11694381
21	0xbe42ea87	-0.19034778
22	0xbdcd69b2	-0.100299254
23	0x3dfa44d9	0.12220163
24	0xbe2f3979	-0.17111768
25	0x3c7a13f5	0.015263547
26	0x3e2804cc	0.1640808
27	0xbcb121c2	-0.021622542
28	0x3cec9175	0.028877953
29	0x3d79d39c	0.060992822
30	0xbc9ba648	-0.019000188
31	0x3b33df11	0.002744619
32	0x3d1448e1	0.036202315
33	0x3cac5f78	0.021041617
34	0xbcd74d0b	-0.026281854
35	0xbd51462c	-0.05109231
36	0xbe84eb0a	-0.2596057
37	0xbe420481	-0.1894703
38	0xbcd9fb3e	-0.02660906
39	0xbd8b3cbd	-0.06798694
40	0xbeaed913	-0.3414999
41	0xbcd27fc4	-0.025695689
42	0x3e5a5f5d	0.2132544
43	0x3e15285d	0.14566179
44	0x3d8be58c	0.06830892
45	0xbd26f4d9	-0.04076085
46	0x3e75d677	0.24007593
47	0x3c560dce	0.013064815
48	0xbd8c5f98	-0.068541706
49	0x3cb629e5	0.022236774
50	0x3e09d180	0.13458824
51	0x3e64c43f	0.22340487
52	0x3e55c83e	0.20877168
53	0x3cd50ccd	0.02600708
54	0xbcf71f15	-0.030166188
55	0x3e56128e	0.20905516
56	0x3cef978b	0.029247066
57	0xba867496	-0.0010258134
58	0xbdab12c0	-0.08353186
59	0xbe5135d3	-0.20430689
60	0xbdcb5567	-0.099283986
61	0x3d4e2cf4	0.05033584
62	0xbe78f817	-0.24313389
63	0xbe69f07c	-0.22845644
64	0xbeb02905	-0.34406295
65	0xbe336894	-0.17520362
66	0xbe424b89	-0.18974127
67	0x3d77c072	0.060486265
68	0xbdbec993	-0.09315791
69	0x3e662680	0.22475624
70	0x3d54a0d5	0.051911194
71	0x3e196d00	0.14982986
72	0xbd00b6ea	-0.03142444
73	0x3e5ae88a	0.21377769
74	0x3d7942ed	0.06085484
75	0x3cb9f661	0.02270049
76	0xbd850e85	-0.0649691
77	0x3cd9446d	0.026521886
78	0x3e1706f3	0.14748745
79	0xbdc89703	-0.09794428
80	0x3d909e94	0.070614964
81	0x3e37e89b	0.17959826
82	0xbdb4fc33	-0.08837166
83	0x3e11845e	0.1421065
84	0x3deea503	0.11652567
85	0x3cc88ffe	0.024482723
86	0x3dafcdde	0.08584188
87	0x3d8b451b	0.0680029
88	0x3ea93a4a	0.33052284
89	0xbbe94201	-0.007118464
90	0xbe8aae40	-0.27086067
91	0xbe836245	-0.2566091
92	0xbd25cd4a	-0.040478982
93	0x3cfb1c38	0.030653104
94	0x3d87b870	0.066269755
95	0xbdc57f76	-0.09643452
96	0xbbd607a8	-0.0065316744
97	0xbc24b7bc	-0.010053571
98	0x3c954ddb	0.018225601
99	0x3d2dc4fc	0.042424187
100	0x3c1e8ba5	0.009676849
101	0x3d2b510b	0.041825335
102	0x3da90a0b	0.08253869
103	0x3e99aafb	0.3001326
104	0xbce41934	-0.027844049
105	0x3db0f15b	0.08639785
106	0x3dd54c7a	0.10414977
107	0x3e44460b	0.19167344
108	0x3c0da380	0.0086449385
109	0x3db1ce6a	0.086819485
110	0xbd8c2e6e	-0.06844793
111	0xbd4cf9ce	-0.05004292
112	0xbb65d0a4	-0.0035066986
113	0x3e4eab19	0.20182456
114	0x3da9a3d1	0.082831986
115	0xbc6fa959	-0.014627778
116	0x3dadd7da	0.08488436
117	0xbd88553b	-0.066568814
118	0xbd929086	-0.07156472
119	0x3df166c8	0.11787182
120	0x3e49bc31	0.19700696
121	0xbd08a2f3	-0.033358525
122	0xbd7784f6	-0.060429536
123	0x3e5b4c49	0.21415819
124	0x3e53eded	0.2069623
125	0x3e64b948	0.22336304
126	0x3ed87805	0.42279068
127	0x3dd5a5ad	0.10431991
128	0x3dff7199	0.12472839
129	0x3f1f87de	0.6231669
130	0xbd8e9ca3	-0.0696347
131	0xbe09290c	-0.13394564
132	0x3dc162ff	0.0944271
133	0x3ba14410	0.0049214438
134	0xbe25dba6	-0.1619707
135	0xbdce862c	-0.10084185
136	0x3d3844c7	0.044987466
137	0xbe8d92d7	-0.27651092
138	0xbef1cb42	-0.47225386
139	0xbea76719	-0.32695845
140	0x3a48078e	0.000763052
141	0xbe275644	-0.16341501
142	0xbd6ebcdd	-0.058285583
143	0x3e068b92	0.1313918
144	0x3d5181f5	0.051149327
145	0x3d589fc1	0.05288673
146	0x3d698392	0.05701024
147	0x3df2f478	0.11863035
148	0x3e37178a	0.17880073
149	0x3e15babf	0.14622019
150	0x3e45b5a8	0.19307578
151	0x3e15f35d	0.14643617
152	0x3d80211a	0.062563136
153	0x3ca96321	0.020677151
154	0x3c0c4c6b	0.008563141
155	0x3de8df2d	0.113706924
156	0x3e6fed49	0.23430361
157	0x3dc14012	0.094360486
158	0x3e3129fd	0.17301174
159	0x3d4564c8	0.048191816
160	0xbdb7f24e	-0.08981763
161	0xbd944e78	-0.07241529
162	0xbe876042	-0.26440626
163	0x3e18d66b	0.14925544
164	0x3d9f49a2	0.07777716
165	0x3d8998e0	0.06718612
166	0xbe057b39	-0.13035287
167	0xbe2d22f6	-0.16907868
168	0xbde21ba8	-0.11040431
169	0x3ccf02a0	0.025269806
170	0xbddba967	-0.1072567
171	0xbeb7f17e	-0.3592643
172	0xbe4f348a	-0.20234886
173	0xbe4106e0	-0.18850279
174	0xbdfd8d42	-0.123804584
175	0x3d86dec3	0.06585457
176	0x3da49e6a	0.080380276
177	0xbd40e439	-0.04709265
178	0x3e702647	0.23452102
179	0x3d328915	0.043587763
180	0x3e9a467b	0.30131897
181	0x3d6fdfdc	0.0585631
182	0xbe34a01e	-0.17639205
183	0xbd92441e	-0.071418986
184	0xb9497e74	-0.00019215961
185	0xbe799040	-0.24371433
186	0xbe2c9da8	-0.16857016
187	0xbd410beb	-0.047130506
188	0xbdc84591	-0.09778894
189	0x3e00c814	0.12576324
190	0x3e20208d	0.15637417
191	0xbdd438c5	-0.103623904
192	0x3e7983d9	0.24366702
193	0x3db77c4c	0.089592546
194	0xbc058dd9	-0.008151495
195	0x3ca198e1	0.019726219
196	0x3e27d246	0.16388807
197	0xbea0d925	-0.31415668
198	0xbe6564ba	-0.22401705
199	0xbe0aef73	-0.13567905
200	0xbe4809e7	-0.19535027
201	0x3d2a9b74	0.041652158
202	0xbe946780	-0.28985214
203	0xbe184175	-0.1486872
204	0xbe4ffab5	-0.20310481
205	0xbdf347c2	-0.11878921
206	0x3d36499a	0.044503786
207	0x3e0f6289	0.14002432
208	0x3e873031	0.26403955
209	0xbe19efa3	-0.1503282
210	0x3d80bfc0	0.062865734
211	0x3e51d5e5	0.2049175
212	0x3e432787	0.19058047
213	0x3d4c246e	0.04983943
214	0x3e413315	0.18867142
215	0xbcf48e43	-0.029852992
216	0x3e11397d	0.14182086
217	0x3f04cf83	0.5187914
218	0x3e59ff67	0.21288835
219	0x3e992271	0.2990909
220	0x3ec2e517	0.38065407
221	0xbd716c02	-0.058940895
222	0x3ead9007	0.33898947
223	0xbd8a9997	-0.06767576
224	0xbe4bf567	-0.19917832
225	0xbdf92a50	-0.121662736
226	0x3d0339b4	0.032037452
227	0x3dc940a9	0.09826786
228	0x3ded9629	0.116009064
229	0x3db2e60d	0.08735285
230	0xbbebdc0f	-0.007197864
231	0x3bcaa7fb	0.0061845756
232	0x3dbfb933	0.09361496
233	0xbe4ee7ed	-0.2020566
234	0x3e916953	0.28400669
235	0x3e071f72	0.13195589
236	0x3e0370cc	0.12835997
237	0xbe9e3e65	-0.30906978
238	0xbe6ad792	-0.22933796
239	0xbec57504	-0.38565838
240	0xbe336091	-0.17517306
241	0x3e9d4b02	0.3072129
242	0xbdf72a49	-0.12068612
243	0x3e28917a	0.16461745
244	0xbe52efb3	-0.2059925
245	0x3e21d661	0.15804435
246	0x3e0ceaf8	0.13761508
247	0x3ec4323d	0.3831958
248	0xbdcc127a	-0.099644616
249	0x3ea6e601	0.32597354
250	0x3e4ec995	0.20194085
251	0xbd06916c	-0.03285353
252	0x3e52ce49	0.20586504
253	0x3e337a63	0.17527156
254	0x3dd4bd02	0.10387613
255	0xbb62b5d7	-0.0034593248

fc1.bias f4 [128]
0	0x3482b408	2.4345377e-07
1	0xb7016a1a	-7.713703e-06
2	0xb69050d0	-4.3009422e-06
3	0x364e4c68	3.0740866e-06
4	0xb6399048	-2.765113e-06
5	0xb5921d76	-1.0886422e-06
6	0xb589792e	-1.0242563e-06
7	0x3592d8c8	1.0940939e-06
8	0x36da8ac3	6.5130603e-06
9	0x34a6d344	3.1073625e-07
10	0xb5338ee4	-6.689063e-07
11	0x37208424	9.56751e-06
12	0x3686f20e	4.02169e-06
13	0x368491b4	3.9508686e-06
14	0x334608a0	4.6108312e-08
15	0xb50c303e	-5.2224266e-07
16	0xb603fa04	-1.966605e-06
17	0xb5db7241	-1.6350024e-06
18	0x36108ff6	2.1541468e-06
19	0x3626ffe2	2.488487e-06
20	0xb5319550	-6.6154917e-07
21	0xb591186c	-1.081045e-06
22	0xb5fd13ab	-1.8855693e-06
23	0xb3240a40	-3.8193548e-08
24	0x3685c313	3.9864185e-06
25	0x3698e53e	4.5566403e-06
26	0x3568c22e	8.6709304e-07
27	0xb6075c70	-2.0170373e-06
28	0xb6691080	-3.472931e-06
29	0x36f40f15	7.2735224e-06
30	0xb4e82c04	-4.3245393e-07
31	0xb5c0f477	-1.4376263e-06
32	0xb5e9b0d9	-1.7411322e-06
33	0x34bf4d40	3.563273e-07
34	0x356d4508	8.8389834e-07
35	0xb5c3e3f8	-1.459498e-06
36	0x362def37	2.591825e-06
37	0x354297f8	7.2491775e-07
38	0xb51fdda0	-5.955462e-07
39	0x35e74836	1.7231857e-06
40	0x35a65f26	1.2395656e-06
41	0xb6c877ee	-5.974426e-06
42	0x3305bd60	3.113871e-08
43	0xb5f6b532	-1.8381163e-06
44	0xb6854335	-3.971533e-06
45	0xb6da521a	-6.506464e-06
46	0xb62babc4	-2.5580966e-06
47	0xb5c50c9c	-1.4681314e-06
48	0xb6705e4b	-3.5817673e-06
49	0xb6bb0d44	-5.5745786e-06
50	0x367a1e34	3.7270484e-06
51	0xb6a37f33	-4.8725865e-06
52	0x3739023c	1.10273795e-05
53	0xb62b9283	-2.5566267e-06
54	0xb5824428	-9.705591e-07
55	0x354fb3cc	7.737515e-07
56	0x35bedb6b	1.4219962e-06
57	0x36dfd6af	6.6709104e-06
58	0xb5cfbb56	-1.5477224e-06
59	0x36582b8a	3.2211851e-06
60	0x36576c76	3.210063e-06
61	0xb60ced3e	-2.0999719e-06
62	0xb5f5c760	-1.8311948e-06
63	0xb4633d80	-2.1163396e-07
64	0xb6379714	-2.7357064e-06
65	0x369b2fb6	4.6249143e-06
66	0x374e262f	1.2287447e-05
67	0x35ad59b8	1.2915616e-06
68	0xb6f68d34	-7.3478095e-06
69	0xb54e5540	-7.6865035e-07
70	0x3689ac9f	4.103014e-06
71	0x35325126	6.6428254e-07
72	0xb5e0a770	-1.6738031e-06
73	0x3788f55a	1.6326714e-05
74	0x34540199	1.974462e-07
75	0x363e4eba	2.8358031e-06
76	0x348824cb	2.5358744e-07
77	0x37133ab9	8.775555e-06
78	0x36545994	3.1642603e-06
79	0x3529b0d8	6.321475e-07
80	0x36d5bc42	6.3698108e-06
81	0xb6d58276	-6.3630823e-06
82	0x354c3def	7.608605e-07
83	0x35c64b22	1.4774016e-06
84	0xb5c1c786	-1.443769e-06
85	0x34b6487e	3.3952887e-07
86	0x35b81462	1.3715e-06
87	0x3734b827	1.0771712e-05
88	0xb7025318	-7.767951e-06
89	0x363f1442	2.847301e-06
90	0xb65581b7	-3.1814977e-06
91	0xb4ca195c	-3.7643883e-07
92	0x3637ec4c	2.7406668e-06
93	0x36c124f6	5.756151e-06
94	0xb60a3cc8	-2.0598982e-06
95	0x3668a2e4	3.4665509e-06
96	0xb7107099	-8.609285e-06
97	0xb6ff440b	-7.6075135e-06
98	0x380181ae	3.087677e-05
99	0x33877e10	6.309358e-08
100	0xb72274cc	-9.683146e-06
101	0x35180f52	5.6646707e-07
102	0xb64fccef	-3.096469e-06
103	0x35ab126c	1.2745854e-06
104	0xb7254d70	-9.852796e-06
105	0x35a73ce2	1.2460189e-06
106	0xb5ecace8	-1.7633693e-06
107	0xb623460a	-2.432966e-06
108	0xb6bdade9	-5.6528847e-06
109	0x35fd13ba	1.885571e-06
110	0x362b066c	2.5484724e-06
111	0x3508b088	5.0920835e-07
112	0xb5d4d6d4	-1.5857754e-06
113	0xb6181ee4	-2.2667746e-06
114	0x36986bbe	4.542496e-06
115	0xb6077f68	-2.0190728e-06
116	0x35365fd2	6.793972e-07
117	0xb653cb2d	-3.1559714e-06
118	0xb57453ac	-9.101884e-07
119	0xb6acb52d	-5.147091e-06
120	0xb67e4002	-3.7886207e-06
121	0x3669a18d	3.481374e-06
122	0x36b6d747	5.4490843e-06
123	0xb6b0a3c5	-5.264274e-06
124	0xb6697e47	-3.4793209e-06
125	0x37056456	7.950779e-06
126	0xb51ab780	-5.76365e-07
127	0x3469977c	2.1754926e-07

bn1.weight f4 [128]
0	0x3f44dc89	0.7689901
1	0x3f5575fa	0.8338314
2	0x3f370877	0.7149729
3	0x3f870b69	1.0550357
4	0x3f2e8eda	0.68186724
5	0x3f11ed2c	0.5700252
6	0x3f350d9c	0.7072389
7	0x3ec1bdfe	0.37840265
8	0x3f8a7812	1.0817893
9	0x3f11f4d1	0.57014185
10	0x3f12f431	0.57403857
11	0x3f20f5f8	0.6287532
12	0x3f6e59e7	0.9310593
13	0x3f017c34	0.50580144
14	0x3f4f61a2	0.8100835
15	0x3f13aa1d	0.5768145
16	0x3f37b530	0.71760845
17	0x3f46e706	0.77696264
18	0x3f2491f5	0.6428521
19	0x3f038796	0.5137876
20	0x3f1cb7aa	0.6121775
21	0x3ede11b3	0.43372878
22	0x3f1804d5	0.59382373
23	0x3f30043e	0.68756473
24	0x3f188c28	0.5958886
25	0x3f1950fd	0.59889203
26	0x3efbcab8	0.491781
27	0x3eee0d52	0.46494538
28	0x3f2412e4	0.64091325
29	0x3f1de680	0.6167984
30	0x3ed1a5b4	0.40946734
31	0x3f0dc861	0.5538388
32	0x3f2c68f2	0.67347634
33	0x3f4e7c0c	0.8065803
34	0x3f3596de	0.7093333
35	0x3f53f0e7	0.8278946
36	0x3f23c776	0.6397623
37	0x3f14391b	0.57899636
38	0x3f4f9341	0.81084067
39	0x3f3b305d	0.7312067
40	0x3f30a9c5	0.6900905
41	0x3f7b55c3	0.98177737
42	0x3ecc28d4	0.398749
43	0x3f19ef92	0.6013118
44	0x3f44795f	0.767477
45	0x3f85d450	1.0455418
46	0x3f526d86	0.8219837
47	0x3ed991af	0.4249396
48	0x3f451357	0.76982635
49	0x3f1b18c3	0.6058466
50	0x3f1ceb91	0.61296946
51	0x3f653244	0.89529824
52	0x3f667c09	0.9003301
53	0x3f2c70b0	0.6735945
54	0x3f74d7b5	0.9564164
55	0x3f034fed	0.5129383
56	0x3ee7ce67	0.4527466
57	0x3f6dfbee	0.9296254
58	0x3f166405	0.5874637
59	0x3f29e1ff	0.6636047
60	0x3f575e74	0.841285
61	0x3f1c211a	0.6098801
62	0x3f6b3238	0.918735
63	0x3f1e849b	0.6192109
64	0x3f289b2b	0.6586177
65	0x3f5e4085	0.868172
66	0x3f4e17db	0.8050515
67	0x3f004cc9	0.50117165
68	0x3f5e0ee0	0.8674145
69	0x3f77d6e5	0.9681228
70	0x3f282e83	0.6569597
71	0x3f256312	0.64604294
72	0x3f4531d4	0.77029157
73	0x3f3706a1	0.7149449
74	0x3f001996	0.5003904
75	0x3ef99b6d	0.48751393
76	0x3f0f35cd	0.5594147
77	0x3f6c790b	0.92372197
78	0x3f054224	0.5205405
79	0x3eb9839a	0.36233217
80	0x3f44c44b	0.7686202
81	0x3f405c16	0.7514051
82	0x3f0525b6	0.5201067
83	0x3f0d3111	0.55152994
84	0x3f044c62	0.5167905
85	0x3ef9574e	0.4869942
86	0x3edacbdc	0.42733657
87	0x3f40a569	0.75252396
88	0x3f33b264	0.7019408
89	0x3f20b4ce	0.62775886
90	0x3f677b8a	0.9042288
91	0x3f2c918b	0.6740958
92	0x3f4d26f1	0.80137545
93	0x3f5011e2	0.81277287
94	0x3f433b17	0.7626204
95	0x3ecd39ee	0.4008326
96	0x3f71d350	0.9446306
97	0x3f4ef1e1	0.8083783
98	0x3f1bebe2	0.60906804
99	0x3f17818d	0.59182054
100	0x3f5ebe2d	0.87008935
101	0x3f2b09b8	0.66811705
102	0x3f43ca7a	0.7648083
103	0x3f6374ac	0.888499
104	0x3f86b5f8	1.0524282
105	0x3ed9adc2	0.4251538
106	0x3ecebf39	0.40380266
107	0x3f3b539a	0.7317444
108	0x3f3a6f96	0.72826517
109	0x3f13c425	0.5772117
110	0x3f44f677	0.76938576
111	0x3f09fc72	0.53900826
112	0x3f2797a6	0.6546577
113	0x3f65d36c	0.8977573
114	0x3f348c23	0.7052633
115	0x3f240282	0.64066327
116	0x3ed806c0	0.4219265
117	0x3f3eb76f	0.7449865
118	0x3f61d309	0.8821264
119	0x3f18d92a	0.59706366
120	0x3f389901	0.72108465
121	0x3f4538d4	0.7703984
122	0x3f5913d1	0.8479586
123	0x3f6b0028	0.91797113
124	0x3f1a0fe8	0.6018052
125	0x3f488834	0.7833283
126	0x3f3922b6	0.7231859
127	0x3f2a0421	0.6641255

bn1.bias f4 [128]
0	0xbe6906ec	-0.22756547
1	0xbe06fac1	-0.13181593
2	0xbe6afe0d	-0.22948475
3	0xbe164599	-0.14674987
4	0xbe6356a9	-0.22201027
5	0xbddc5be2	-0.10759713
6	0xbeaa822e	-0.33302444
7	0xbda0c3be	-0.07849835
8	0xbe31d087	-0.17364703
9	0xbe043f54	-0.12914783
10	0xbe98ffa8	-0.2988255
11	0xbd7b8593	-0.061406683
12	0xbe809e8c	-0.25120962
13	0xbe42c3e0	-0.19020033
14	0xbe680412	-0.22657803
15	0xbeaf2db6	-0.34214562
16	0xbe8f1c51	-0.2795129
17	0xbe2bca78	-0.16776454
18	0xbe593248	-0.21210587
19	0xbe1c2b96	-0.15251002
20	0xbe85c105	-0.26123825
21	0xbe4367d2	-0.19082573
22	0xbdb95232	-0.09048881
23	0xbe54bf82	-0.2077618
24	0xbee6e226	-0.45094413
25	0xbea2c14b	-0.31788096
26	0xbda9f304	-0.08298305
27	0xbe942157	-0.28931686
28	0xbeb1bac4	-0.34712803
29	0xbe0e2afc	-0.13883585
30	0xbe73b741	-0.23800375
31	0xbe8f8db8	-0.2803781
32	0xbf12408c	-0.5712974
33	0xbe603ffa	-0.21899405
34	0xbec9a0c1	-0.39380458
35	0xbe619c3e	-0.22032258
36	0x3b8fd844	0.0043897945
37	0xbe005aed	-0.12534685
38	0xbda5d068	-0.08096391
39	0xbe78a6fd	-0.24282451
40	0xbe579013	-0.21051054
41	0xbe9a6019	-0.30151442
42	0xbe3b91b3	-0.18317299
43	0xbe3d6ce1	-0.18498565
44	0xbeb4ee17	-0.35337898
45	0xbe7085f1	-0.23488595
46	0xbe9256ee	-0.28581947
47	0xbeb51686	-0.35368747
48	0xbdf68009	-0.120361395
49	0xbe872d17	-0.26401588
50	0xbe33ac25	-0.17546137
51	0xbe6798a9	-0.22616829
52	0xbe5fbe3d	-0.21849914
53	0xbe916af7	-0.2840192
54	0xbe80dc48	-0.2516806
55	0xbd87bbaf	-0.06627595
56	0xbe12140e	-0.14265463
57	0xbe8a9be1	-0.2707205
58	0xbe4805d2	-0.1953347
59	0xbe8a1f2e	-0.26976913
60	0xbee20367	-0.4414322
61	0xbd5e1708	-0.054221183
62	0xbec8f1b6	-0.3924691
63	0xbe961bf7	-0.2931821
64	0xbe5a8171	-0.2133844
65	0xbe880efb	-0.2657393
66	0xbea4cb01	-0.3218613
67	0xbe03051e	-0.12794921
68	0xbe874925	-0.26422992
69	0xbebf8772	-0.37408024
70	0xbedb94a2	-0.42886835
71	0xbebff390	-0.3749051
72	0xbe9b597f	-0.30341718
73	0xbda47afa	-0.080312684
74	0xbe94b7ac	-0.2904638
75	0xbe8c96a9	-0.27458695
76	0xbe845a84	-0.25850308
77	0xbeb7c3ea	-0.35891658
78	0xbd586180	-0.05282736
79	0xbe3ac4fb	-0.18239205
80	0xbe330296	-0.17481455
81	0xbe979b36	-0.29610604
82	0xbd40792c	-0.04699056
83	0xbeb20db5	-0.34776083
84	0xbe8edfd7	-0.2790515
85	0xbe795943	-0.24350457
86	0xbdc827fd	-0.09773252
87	0xbebce36e	-0.36892265
88	0xbe374405	-0.17897041
89	0xbe861551	-0.26188138
90	0xbe852f49	-0.26012638
91	0xbe8af7fc	-0.27142322
92	0xbd9df51f	-0.07712769
93	0xbf17fde6	-0.59371793
94	0xbe3c733a	-0.1840333
95	0xbde1de27	-0.110287
96	0xbe85b38f	-0.26113555
97	0xbec0ec67	-0.3768036
98	0xbef9e93e	-0.48810762
99	0xbdc27fc0	-0.09497023
100	0xbe05dcc2	-0.13072494
101	0xbe7aa3e2	-0.24476579
102	0xbe5b3741	-0.21407796
103	0xbe2f1bef	-0.171005
104	0xbece371b	-0.40276417
105	0xbeb19f46	-0.34691828
106	0xbdf8c99d	-0.1214783
107	0xbc957b12	-0.018247161
108	0xbd8a8ba0	-0.067649126
109	0xbe38f93b	-0.18063824
110	0xbeaf1387	-0.34194586
111	0xbe2914b1	-0.165118
112	0xbec38b78	-0.38192344
113	0xbe7914ea	-0.24324384
114	0xbe6ac261	-0.22925712
115	0xbe92fefa	-0.28710157
116	0xbec16fcc	-0.37780607
117	0xbec1e37b	-0.37868866
118	0x3d124fa6	0.03572049
119	0xbe77a659	-0.2418455
120	0xbee278c7	-0.4423277
121	0xbee09839	-0.43866137
122	0xbe89c2e0	-0.2690649
123	0xbef33afb	-0.47505936
124	0xbe593da1	-0.21214916
125	0xbe3e30e7	-0.18573342
126	0xbe972a3f	-0.2952442
127	0xbda3bbcd	-0.079948045

bn1.running_mean f4 [128]
0	0xbfcb9e85	-1.5907751
1	0x3ff9128c	1.9458785
2	0x3fc79ff7	1.5595692
3	0xbea79be2	-0.32736117
4	0xbf93776f	-1.1520823
5	0x3f685d62	0.9076749
6	0xbf77bef4	-0.96775746
7	0xbf846eeb	-1.034635
8	0xc07e975c	-3.9779882
9	0xbf18c2c3	-0.5967218
10	0x3fae407e	1.3613431
11	0x40244186	2.5664992
12	0x3f9d8411	1.2305928
13	0x3e6854ba	0.2268857
14	0xbe1154fa	-0.14192572
15	0x3f1ea115	0.6196454
16	0x3f97afae	1.1850488
17	0x3f4bf01a	0.7966324
18	0x3ea8c07e	0.3295936
19	0x3f7f5620	0.9974079
20	0x3f6e989b	0.9320161
21	0x40387598	2.8821774
22	0xbe12d38c	-0.14338511
23	0x3fba4d37	1.4554814
24	0x3fc5312e	1.5405633
25	0x3fc15429	1.5103809
26	0xbe86bf5b	-0.26317868
27	0xbe4613ed	-0.19343539
28	0xbff6af16	-1.9272182
29	0xbdf2c1cb	-0.11853369
30	0x3f51e862	0.81995213
31	0xbf42f2aa	-0.76151526
32	0x3f856852	1.0422461
33	0x3fe4044c	1.7813811
34	0x3ff8f3a1	1.944935
35	0xbf662853	-0.8990528
36	0x3f4f90a5	0.81080085
37	0x3f9e81b9	1.2383338
38	0xbf508274	-0.81449056
39	0x3f3401f3	0.70315474
40	0x3e63fa40	0.22263432
41	0x3f6d561e	0.9270953
42	0xbf499f81	-0.7875901
43	0x3ee3f0fd	0.44519797
44	0xbfa8c407	-1.3184823
45	0x3f109dd1	0.5649081
46	0xbed100ef	-0.40821025
47	0x3e9ace2d	0.30235425
48	0x3d9c0545	0.076181926
49	0x3e3ecb56	0.18632254
50	0x3edcbb7b	0.43111786
51	0x3f4355ad	0.76302606
52	0xbd8648a4	-0.06556824
53	0x3f83fc05	1.0311285
54	0x3eabe791	0.3357511
55	0xbe58029d	-0.21094747
56	0xbff2c6bb	-1.8966898
57	0x3f73aa08	0.9518132
58	0x3e8ab916	0.27094334
59	0x3f988e89	1.1918498
60	0x3f0e643a	0.55621684
61	0x40270be8	2.6101017
62	0xbfb1e4e1	-1.3897973
63	0x3ff49004	1.910645
64	0xbf82ac04	-1.0208745
65	0x3e8abdea	0.27098018
66	0x4001e220	2.0294266
67	0xc0060158	-2.093832
68	0x3f090c1e	0.53534114
69	0x3f13c3c7	0.5772061
70	0x3e2748c2	0.16336349
71	0xbe245b3e	-0.16050431
72	0x3fad2980	1.352829
73	0x3f027df3	0.50973433
74	0xbefc574c	-0.49285352
75	0x3fdc0020	1.7187538
76	0x3ffca758	1.9738569
77	0x3f814f84	1.0102391
78	0xbe51c531	-0.20485379
79	0xbf30434a	-0.68852675
80	0xc00854ad	-2.1301682
81	0xbdd36303	-0.10321619
82	0x3eb56f30	0.35436392
83	0x3efc6777	0.49297687
84	0x3f19e07b	0.60108155
85	0x3eb79df5	0.358627
86	0x3f556e8d	0.8337181
87	0x3f34f805	0.7069095
88	0x3ec7a161	0.3899031
89	0xbfd72a75	-1.6809832
90	0x3fc00963	1.5002865
91	0x3f6bc6a0	0.9209995
92	0x3effadf3	0.499374
93	0xc04d36a8	-3.206461
94	0xbf2954e4	-0.6614516
95	0x3fdedc13	1.7410911
96	0x3f1facb3	0.62372893
97	0x3f5b0d28	0.8556695
98	0xc04cb827	-3.1987398
99	0xbf2955bd	-0.6614645
100	0x3fa86053	1.3154396
101	0xbd1f1f20	-0.038848042
102	0xbeeac3f1	-0.45852616
103	0x3fe586ba	1.793174
104	0xbfa1e495	-1.2647883
105	0xbea50db0	-0.32237005
106	0x3f150c4f	0.58221906
107	0x3f2c08f8	0.67201185
108	0xbe698e6f	-0.2280824
109	0xbfc7aed4	-1.5600228
110	0xbf24b625	-0.6434043
111	0xbfc5cc13	-1.5452904
112	0xbf1d41e0	-0.6142864
113	0x40691ce0	3.6423874
114	0xbdf77563	-0.120829366
115	0xbfcecc02	-1.6156008
116	0x3f725e27	0.94674915
117	0x3faf6f51	1.3705846
118	0x3f597235	0.8493989
119	0x3fcf1872	1.6179335
120	0x3f7f5cdc	0.9975107
121	0x3f6efa28	0.9335046
122	0x3fd80cc2	1.6878893
123	0xbefcaff1	-0.49352983
124	0x3fa2f6b2	1.2731535
125	0xbf21fe25	-0.6327842
126	0x3e62d9f7	0.2215346
127	0x3fff3774	1.9938798

bn1.running_var f4 [128]
0	0x3f923aa4	1.1424146
1	0x3f7625e7	0.96151584
2	0x3f9234cd	1.1422364
3	0x3f7f5b7d	0.99748975
4	0x3f0e04d0	0.55476093
5	0x3f7977e5	0.9744857
6	0x40001a1d	2.0015938
7	0x3ef5d9f1	0.4801784
8	0x3f4a7327	0.7908196
9	0x3ef1181a	0.470887
10	0x3f1b1d22	0.6059133
11	0x3f3422f3	0.7036583
12	0x3f972da1	1.18108
13	0x3ecb0733	0.3965393
14	0x3fd1f304	1.6402287
15	0x3f27c143	0.6552927
16	0x3edf188e	0.4357342
17	0x3fddf957	1.7341717
18	0x3ef4c1fd	0.4780425
19	0x3f03292e	0.5123471
20	0x3f728bb9	0.9474445
21	0x3ee75518	0.4518211
22	0x3ec65c80	0.38742447
23	0x3f2668da	0.6500374
24	0x3f23e9e5	0.6402877
25	0x3f156a42	0.5836526
26	0x3f3db17e	0.74098957
27	0x3edad7db	0.4274281
28	0x3f2c0cd6	0.67207086
29	0x3f1b1cd9	0.60590893
30	0x3f7673f3	0.96270674
31	0x3f35e24a	0.71048415
32	0x3f8b37a0	1.087635
33	0x3f54a049	0.83057076
34	0x3f46dc91	0.7768031
35	0x3fa7ba0f	1.3103656
36	0x3f5c4f6f	0.86058706
37	0x3f46acb2	0.7760726
38	0x3f4f1ca8	0.809031
39	0x3f7c62fb	0.9858853
40	0x3f9bf026	1.2182662
41	0x3f3c135b	0.73467034
42	0x3f7484c2	0.9551507
43	0x3f337f74	0.70116353
44	0x3f8c08f9	1.0940238
45	0x3fa77be3	1.3084682
46	0x3f771d56	0.9652914
47	0x3f5ad97f	0.8548812
48	0x3f8002d2	1.0000861
49	0x3f052aec	0.5201862
50	0x3fec2cb8	1.8451147
51	0x3f6557b2	0.8958694
52	0x3f8ae97d	1.0852505
53	0x3f7eb7e6	0.99499357
54	0x3f13de2d	0.5776089
55	0x3f20f88c	0.6287925
56	0x3f1a8a15	0.60366946
57	0x3fb841b6	1.4395053
58	0x3f9c7c3d	1.2225415
59	0x3f68f078	0.90991926
60	0x3f83a308	1.0284128
61	0x3fa421fc	1.2822871
62	0x40069a40	2.1031647
63	0x3f16ae20	0.58859444
64	0x3f7251d5	0.94656116
65	0x3fea6202	1.831116
66	0x3f86041b	1.0470003
67	0x3f7a5cd9	0.97797924
68	0x3f7f9c1e	0.9984759
69	0x3fd75f3c	1.6825938
70	0x3fe51c57	1.7899274
71	0x3f144e33	0.5793182
72	0x3f317239	0.69314915
73	0x3f594d39	0.8488346
74	0x3f8644ea	1.0489781
75	0x3f4e996a	0.8070284
76	0x3f801f9a	1.0009644
77	0x3f56c8e0	0.8390026
78	0x3f409d3a	0.7523991
79	0x4025986c	2.587428
80	0x3fe34853	1.7756447
81	0x3f3807c7	0.7188687
82	0x3fa4db7a	1.2879479
83	0x3f7a473c	0.97764945
84	0x3f2873c5	0.6580165
85	0x3ea50647	0.32231352
86	0x3f023e0b	0.5087592
87	0x3f8802b8	1.062583
88	0x3fa015a5	1.2506605
89	0x3f7f96e3	0.9983961
90	0x401579fe	2.3355708
91	0x3f98a146	1.1924217
92	0x3f490ab4	0.78531957
93	0x3ffe356c	1.9860053
94	0x3f5da73b	0.865833
95	0x3f34487e	0.70423114
96	0x3f821413	1.0162376
97	0x3f428895	0.7598966
98	0x3f0cd7eb	0.55016965
99	0x3f9b64ad	1.2140099
100	0x3f71611b	0.94288796
101	0x3ff075f5	1.8785998
102	0x3f6cba84	0.924721
103	0x3fbe9d59	1.4891769
104	0x3f9870ef	1.1909465
105	0x3f8f3017	1.1186551
106	0x3ea3f758	0.32024646
107	0x3f2ad16c	0.667258
108	0x3fd90a63	1.6956295
109	0x3f57eb73	0.8434364
110	0x3f9c56c6	1.2213981
111	0x3f492703	0.7857515
112	0x3fa00430	1.2501278
113	0x3fa5aa85	1.2942663
114	0x3f89f871	1.0778943
115	0x3f0c27cd	0.5474823
116	0x3fa6734b	1.3003935
117	0x3fab5c24	1.3387494
118	0x3f6f26b0	0.9341841
119	0x3f169a4e	0.588292
120	0x3f6797ba	0.9046589
121	0x3f14ad55	0.58076984
122	0x3f8d2552	1.1027014
123	0x3fd6b826	1.6774948
124	0x3f1c4d47	0.61055416
125	0x3fce0036	1.6093814
126	0x3fbfdd93	1.4989494
127	0x3fc34adb	1.5257219

fc2.weight f4 [64, 128]
0	0xbd2b62d3	-0.041842293
1	0xbdde4e6c	-0.108548015
2	0x3c4f1cc3	0.012641135
3	0x3e70ddef	0.23522161
4	0xbe43d102	-0.19122699
5	0x3e1cf827	0.15329038
6	0xbe7050e7	-0.23468362
7	0xbe35cd05	-0.1775399
8	0xbe4fb27b	-0.20282929
9	0x3b3c6f64	0.0028752917
10	0xbe2facca	-0.17155758
11	0xbe672024	-0.22570854
12	0x3e16d8cf	0.14731143
13	0x3e45f088	0.19330037
14	0x3d89f3b1	0.067359336
15	0x3e6e7944	0.23288447
16	0xbd622118	-0.055207342
17	0xbc6f65a3	-0.014611634
18	0xbe04e856	-0.12979254
19	0x3ddd9e4f	0.108212106
20	0x3e20063c	0.15627378
21	0xbe09edda	-0.1346964
22	0xbe1da492	-0.1539481
23	0xbe28d833	-0.16488723
24	0x3d0ad222	0.033891805
25	0x3dd664d1	0.10468448
26	0x3d31bbe2	0.04339207
27	0x3e0b0378	0.13575542
28	0xbdbbbb03	-0.09166529
29	0xbe4f4061	-0.20239402
30	0x3dbc18f4	0.09184447
31	0xbe4e524b	-0.2014858
32	0x3d3c9a63	0.046045672
33	0x3c810a1f	0.015751896
34	0x3da5b738	0.08091587
35	0x3e3c4115	0.18384202
36	0xbdd4bc9d	-0.10387538
37	0x3a784802	0.0009471179
38	0xbe7157bc	-0.23568624
39	0xbd95ec90	-0.07320511
40	0x3e14a00f	0.14514183
41	0xbab91466	-0.0014120459
42	0x3d4ef50c	0.050526664
43	0xbd95ba45	-0.07310919
44	0x3e730d72	0.23735598
45	0x3e722fef	0.23651098
46	0x3ad5c291	0.0016308596
47	0x3dc60716	0.0966932
48	0x3df30d2f	0.11867749
49	0xbd6fd410	-0.058551848
50	0x3e14eaf0	0.14542747
51	0x3c158f38	0.009128384
52	0xbcdfa288	-0.02729918
53	0xbd908c40	-0.070580006
54	0xbdf18315	-0.1179258
55	0xbd61b8af	-0.05510777
56	0x3d0c69b9	0.034280512
57	0x3d417e1c	0.047239408
58	0x3e587dab	0.21141689
59	0x3d9741d2	0.07385601
60	0xbe1e3b4f	-0.15452312
61	0xbe24feef	-0.16112874
62	0x3e01031c	0.12598842
63	0x3e264e1c	0.16240734
64	0xbeaf1363	-0.34194478
65	0x3d8ae57c	0.06782052
66	0x3c5ad928	0.013357438
67	0xbe43662e	-0.19081947
68	0x3ad15579	0.0015970907
69	0x3ed47182	0.4149285
70	0xbe869f6a	-0.26293498
71	0xbd34eaa2	-0.044169076
72	0xbdfa4d4c	-0.122217745
73	0xbe4d2a67	-0.20035706
74	0x3e10815a	0.14111844
75	0x3d96cf26	0.07363729
76	0x3d7d0491	0.061771933
77	0xbced78d4	-0.02898828
78	0x3c84b2f6	0.016198616
79	0x3c16438f	0.009171381
80	0xbebca133	-0.36841735
81	0xbe100f50	-0.14068341
82	0xbdf93134	-0.12167588
83	0xbe4cca52	-0.19999054
84	0x3e89f25a	0.26942712
85	0x3d17ea38	0.037088603
86	0xbe18c231	-0.14917828
87	0xbd9f3b18	-0.07774943
88	0x3e388b43	0.18021874
89	0xbe9bcb90	-0.30428743
90	0x3e57e293	0.21082525
91	0xbd7638a3	-0.060112607
92	0x3d8d959d	0.06913302
93	0xbd8668b3	-0.065629385
94	0x3c6e9c39	0.014563614
95	0xbe14818f	-0.14502548
96	0x3ec27420	0.3797922
97	0xbda348d4	-0.07972875
98	0x3d58385f	0.052788135
99	0xbdefad75	-0.11703006
100	0x3e14841b	0.14503519
101	0xbdde97c5	-0.108687915
102	0xbc0dccb2	-0.00865476
103	0x3dbec48a	0.093148306
104	0x3df74ca2	0.120751634
105	0xbe0608a3	-0.13089232
106	0xbbdc3896	-0.0067206128
107	0x3e8e4392	0.27785927
108	0xbe84be57	-0.25926468
109	0x3d2492ad	0.040178943
110	0x3e2879a1	0.16452648
111	0xbd22f37e	-0.039782993
112	0x3b974410	0.004616268
113	0xbe9021cb	-0.28150782
114	0x3db9cd1f	0.09072327
115	0xbe25a258	-0.1617521
116	0x3d17dbf0	0.037074983
117	0x3d2c5a73	0.042078447
118	0xbe618a0b	-0.22025315
119	0x3d113618	0.03545198
120	0xbe651a55	-0.22373326
121	0xbda3b07c	-0.07992646
122	0x3d25e498	0.040501207
123	0x3e1c3e43	0.15258126
124	0x3cd18cab	0.025579771
125	0x3e805f18	0.2507255
126	0x3de40c03	0.111351036
127	0xbe6f0cfd	-0.23344798
128	0xbe89c459	-0.26907614
129	0xbd8c8dc7	-0.068629794
130	0xbd50004b	-0.05078153
131	0xbe53732f	-0.20649408
132	0x3e3d5154	0.18488055
133	0xbd730504	-0.059330955
134	0xbd5ebcb3	-0.054379176
135	0x3d798e78	0.060926884
136	0x3ddb947f	0.10721683
137	0xbe157258	-0.145944
138	0x3c971aa5	0.018445322
139	0x3dff8037	0.12475627
140	0xbd57fac7	-0.052729394
141	0xbd95c747	-0.073134
142	0x3bc26d38	0.00593343
143	0xbe33c000	-0.17553711
144	0x3e30b47c	0.1725635
145	0xbdb7de17	-0.08977907
146	0xbea726dc	-0.32646835
147	0xbd051abc	-0.0324962
148	0xbea9b6c4	-0.33147252
149	0xbdfa6940	-0.12227106
150	0x3e6ac37d	0.22926135
151	0x3e1732b5	0.14765437
152	0x3d00d68f	0.03145462
153	0xbd1bc305	-0.038027782
154	0x3cf4ac61	0.029867353
155	0xbd949c3a	-0.0725636
156	0xbdd08d83	-0.10183241
157	0x3d9aea26	0.075641915
158	0xbce5cf3b	-0.028052917
159	0xbc918655	-0.01776425
160	0xbe8aa96c	-0.27082384
161	0xbe1ab65f	-0.15108632
162	0xbdf8b0e6	-0.12143116
163	0xbe8666a9	-0.26250198
164	0x3e9d9334	0.3077637
165	0xbe7514ec	-0.23933762
166	0x3eb88c67	0.36044618
167	0x3d997882	0.07493688
168	0xbebcd1dd	-0.36878863
169	0x3ed55e25	0.4167339
170	0x3e178383	0.14796261
171	0xbe33e660	-0.1756835
172	0xbd096f80	-0.0335536
173	0x3e83df0d	0.25756112
174	0x3d9c670f	0.07636844
175	0x3de872d7	0.11350029
176	0x3d977c28	0.07396728
177	0x3e8e6c19	0.27816847
178	0xbe3150b4	-0.17315942
179	0x3e9e0496	0.30862874
180	0x3d133377	0.035937753
181	0x3e1869db	0.1488413
182	0x3e2dea0f	0.16983818
183	0x3d47a99d	0.04874574
184	0x3dcb9b8c	0.099417776
185	0xbdb97947	-0.09056335
186	0xbdbdd04f	-0.09268247
187	0xbe0e65df	-0.13906048
188	0x3e19f6b9	0.15035523
189	0xbe3d172a	-0.18465868
190	0x3ea9816d	0.33106557
191	0xbda9d943	-0.082933925
192	0x3e8caba3	0.27474698
193	0xbcfab252	-0.030602608
194	0x3e0fa1c3	0.14026551
195	0x3a8ae2ff	0.0010596215
196	0xbd9306aa	-0.071790054
197	0xbe75d357	-0.24006401
198	0x3efc4594	0.49271834
199	0xbda3cb4b	-0.079977594
200	0xbe7d81e0	-0.24756575
201	0x3d2ad5c6	0.041707776
202	0x3a390fc3	0.00070595386
203	0xbcb086b1	-0.0215486
204	0x3d94fa73	0.07274332
205	0x3ebb8238	0.36622787
206	0xbd9b4686	-0.07581811
207	0x3de5badf	0.112172835
208	0xbe4e490d	-0.20145054
209	0xbd017495	-0.031605322
210	0x3db2a6bb	0.087232076
211	0xbd3b7592	-0.04576642
212	0xbe88f27f	-0.2674751
213	0x3c4c57d4	0.012472112
214	0x3e0d79d7	0.1381601
215	0xbd3815dd	-0.044942725
216	0x3e1d2c0b	0.15348832
217	0x3e5712cc	0.21003264
218	0xbd194b12	-0.03742511
219	0x3e5ab81b	0.21359293
220	0x3e34b612	0.1764758
221	0x3dc36e2c	0.09542498
222	0xbeda0298	-0.42580104
223	0x3db238d8	0.08702248
224	0xbd5a09d1	-0.053232018
225	0xbb986995	-0.0046512582
226	0x3c167c67	0.009184933
227	0x3d80ff5d	0.06298707
228	0xbc870b90	-0.016485006
229	0x3cdf2d9f	0.027243434
230	0x3b8ba9ac	0.00426217
231	0xbdf67a88	-0.1203509
232	0x3e00016c	0.12500542
233	0xbe730c07	-0.23735057
234	0xbd5cfc5f	-0.053951617
235	0x3e80c466	0.2514984
236	0xbaa1a5c0	-0.0012332723
237	0x3e3f5981	0.18686487
238	0x3c4a5103	0.012348416
239	0x3e29787f	0.16549872
240	0xbe811754	-0.2521311
241	0x3d797d3b	0.060910445
242	0xbd7a79cc	-0.06115131
243	0x3df6b0d6	0.120454475
244	0xbdad5e7d	-0.08465288
245	0xbebb3eb7	-0.36571285
246	0x3e989977	0.29804584
247	0xbdd06734	-0.101759344
248	0xbde29b3f	-0.11064767
249	0x3e38f6ac	0.18062848
250	0x3d2c3f64	0.04205264
251	0x3dc17726	0.09446554
252	0xbcb40608	-0.021975532
253	0xbe168dac	-0.14702481
254	0x3e06d418	0.13166845
255	0xbe2ce47a	-0.16884032

fc2.bias f4 [64]
0	0x36af1cc0	5.2187534e-06
1	0xb637921e	-2.7354176e-06
2	0xb68139c8	-3.851226e-06
3	0xb59f7534	-1.1880534e-06
4	0xb32132c0	-3.753189e-08
5	0xb47e4d88	-2.3683799e-07
6	0x35e77cbe	1.7247146e-06
7	0xb73656b5	-1.0868233e-05
8	0x35423972	7.2354226e-07
9	0xb604f95e	-1.9814684e-06
10	0x36fe2dda	7.5751277e-06
11	0xb6452fe2	-2.938316e-06
12	0x3525295e	6.1527487e-07
13	0x36326173	2.658079e-06
14	0x3601e81e	1.9357608e-06
15	0xb6d7436a	-6.4153473e-06
16	0x3611b85a	2.171399e-06
17	0x33469380	4.6234618e-08
18	0x3613f8d3	2.2049542e-06
19	0x35e926ca	1.7371142e-06
20	0x3602d583	1.949579e-06
21	0x3584b530	9.887499e-07
22	0x350717d8	5.0326116e-07
23	0xb534c62c	-6.7343603e-07
24	0x3689c8fb	4.1063154e-06
25	0x3653c3c8	3.155541e-06
26	0x335dfa3c	5.168316e-08
27	0xb5d74603	-1.6039124e-06
28	0xb71a8ce6	-9.211921e-06
29	0x34119560	1.355852e-07
30	0xb50e62fd	-5.304317e-07
31	0xb309a1e0	-3.2045023e-08
32	0xb5c358ae	-1.4554441e-06
33	0xb54cf6dc	-7.635515e-07
34	0x36670ce6	3.442919e-06
35	0x35432fb2	7.2712567e-07
36	0x36ea8db6	6.9902408e-06
37	0x36276ede	2.4949472e-06
38	0x3635bdec	2.708165e-06
39	0xb2e31340	-2.6435032e-08
40	0x360671f4	2.0033885e-06
41	0x35fd6987	1.8880681e-06
42	0xb58cc6cf	-1.0488674e-06
43	0xb52b8eb0	-6.39101e-07
44	0xb4fd2634	-4.715272e-07
45	0x364d8e51	3.063022e-06
46	0xb6a08c41	-4.7846993e-06
47	0xb608dec3	-2.0395244e-06
48	0x35d17d3c	1.5608161e-06
49	0xb5bd015c	-1.4081993e-06
50	0x36a119d8	4.8011825e-06
51	0x3598f0b5	1.1394937e-06
52	0x363b18eb	2.7879676e-06
53	0xb604287e	-1.9693102e-06
54	0xb6a0cad6	-4.791985e-06
55	0x353d10dc	7.043252e-07
56	0xb5940903	-1.1029482e-06
57	0xb6a63f37	-4.9545447e-06
58	0x3670bb02	3.587164e-06
59	0x3580bc8c	9.591618e-07
60	0x35cb9209	1.516718e-06
61	0x34d54c48	3.9729844e-07
62	0xb586206b	-9.993213e-07
63	0xb5f305f6	-1.8106646e-06

bn2.weight f4 [64]
0	0x3f53f842	0.82800686
1	0x3f40931b	0.75224465
2	0x3f36387f	0.71179956
3	0x3f51d4c5	0.81965286
4	0x3f0cf704	0.55064416
5	0x3f01cb10	0.50700474
6	0x3f11103e	0.5666541
7	0x3f2fbd70	0.68648434
8	0x3f25cb24	0.64763093
9	0x3f47363f	0.7781715
10	0x3f672246	0.9028667
11	0x3f3c4afe	0.7355193
12	0x3f505a2b	0.81387585
13	0x3edc6f80	0.43053818
14	0x3f489ec3	0.7836725
15	0x3f29eb50	0.66374683
16	0x3f35429a	0.7080475
17	0x3f44bf55	0.7685445
18	0x3f242952	0.6412555
19	0x3f1652b5	0.5871995
20	0x3f614338	0.8799319
21	0x3f1bdf3a	0.6088749
22	0x3f3db99b	0.74111336
23	0x3f47434e	0.77837074
24	0x3f5d721b	0.86502236
25	0x3f338548	0.70125246
26	0x3f183bf3	0.59466475
27	0x3f1f2a59	0.6217399
28	0x3f23c089	0.6396566
29	0x3f1d17b9	0.6136432
30	0x3f5dae75	0.86594325
31	0x3f202d62	0.6256925
32	0x3f600455	0.8750661
33	0x3f3f6aaa	0.7477213
34	0x3f453082	0.7702714
35	0x3f2db5cc	0.67855525
36	0x3f1f2f01	0.621811
37	0x3f492558	0.7857261
38	0x3f37aeda	0.7175118
39	0x3f38c693	0.72178
40	0x3f1ad5f2	0.60482705
41	0x3f05e235	0.5229829
42	0x3f3b6a9c	0.7320955
43	0x3f1662ae	0.58744323
44	0x3f0954f7	0.5364527
45	0x3f38171b	0.71910256
46	0x3f617574	0.88069844
47	0x3f35ed8b	0.71065587
48	0x3f60f89f	0.87879366
49	0x3f732635	0.94980174
50	0x3f53f222	0.8279134
51	0x3f519f0d	0.8188332
52	0x3f3cbbc0	0.73723984
53	0x3f4f20e6	0.80909574
54	0x3f66be5a	0.90134203
55	0x3f2cb658	0.67465734
56	0x3f24e5ce	0.64413154
57	0x3f3a6233	0.7280609
58	0x3f489f2a	0.78367865
59	0x3f7992bb	0.9748952
60	0x3f332be6	0.6998886
61	0x3f3ae3d2	0.73003876
62	0x3f3a8560	0.72859764
63	0x3f3bbf15	0.73338443

bn2.bias f4 [64]
0	0xbbc8b792	-0.006125399
1	0xbe3b7d61	-0.18309547
2	0xbe99b75c	-0.30022705
3	0xbe104bcc	-0.14091414
4	0xbd0a9628	-0.033834606
5	0xbcca68c5	-0.024708161
6	0xbdb0108e	-0.085969076
7	0xbe786b70	-0.24259734
8	0x3ec50117	0.38477394
9	0x3e493f70	0.19653106
10	0xbd42e726	-0.04758372
11	0x3c33ec16	0.01098158
12	0x3e06b70c	0.13155764
13	0xbe8f9984	-0.2804681
14	0x3e2b9367	0.16755448
15	0xbe8fedc4	-0.28111088
16	0x3e6d806a	0.23193517
17	0x3d59a78d	0.053138305
18	0x3de50411	0.11182416
19	0xbe0b14d3	-0.13582163
20	0xbda6bed0	-0.08141863
21	0xbe4412d0	-0.19147801
22	0x3ed202de	0.41017812
23	0x3dcb2f2d	0.099211074
24	0x3e1e81a2	0.15479138
25	0x3db68b66	0.08913307
26	0xbd41443e	-0.04718422
27	0xbe137319	-0.14399375
28	0xbdb6cbc4	-0.08925584
29	0xbdab1cfd	-0.083551385
30	0x3dede84b	0.11616572
31	0xbe487241	-0.19574834
32	0x3e50f797	0.20406948
33	0x3ccc4d63	0.024939245
34	0x3dbcd5a8	0.09220439
35	0xbd5d07fe	-0.0539627
36	0x3d0ffd0e	0.03515344
37	0x3e2e45da	0.17018834
38	0xbdd4374f	-0.10362112
39	0x3e06c483	0.13160901
40	0xbdfade9b	-0.1224949
41	0xbe2fe167	-0.17175828
42	0x3e3d2255	0.18470128
43	0xbdf9c762	-0.121962324
44	0xbc545f58	-0.012962185
45	0xbcdececc	-0.027198218
46	0x3eb0785d	0.3446683
47	0x3e4a7b20	0.19773531
48	0x3e4663a5	0.19373949
49	0x3d178e16	0.037000738
50	0xbe391ca8	-0.18077338
51	0x3db2dfac	0.08734068
52	0x3d1ed0ed	0.038773466
53	0x3d961f5c	0.073302
54	0x3e2d6b28	0.16935408
55	0xbbe461e2	-0.0069696764
56	0xbec2fe54	-0.38084662
57	0xbd82d96c	-0.06389126
58	0x3d82ebb2	0.063926116
59	0x3c4b91b2	0.012424873
60	0xbe5d7e1a	-0.21630135
61	0xbe412527	-0.18861829
62	0xbdb5ea18	-0.088825405
63	0xbe9232be	-0.28554338

bn2.running_mean f4 [64]
0	0xbe0a9a69	-0.13535465
1	0x3eab0730	0.3340392
2	0xbd5155c5	-0.051107187
3	0xbd5ac811	-0.053413454
4	0xbe9ed8f3	-0.31024894
5	0x3e41e07a	0.18933287
6	0xbf81410e	-1.0097978
7	0x3e867843	0.26263627
8	0xbe42cbab	-0.19023006
9	0x3d97eaf7	0.07417863
10	0xbf58d4f6	-0.8469995
11	0x3ebe77ab	0.37200674
12	0xbd839dc2	-0.06426574
13	0xbe070f5a	-0.1318945
14	0xbe0035f8	-0.12520587
15	0xbf3ea251	-0.74466425
16	0x3e94e7ea	0.29083186
17	0xbd8e33db	-0.069434844
18	0x3ee87cb3	0.45407638
19	0xbf314f4c	-0.6926162
20	0xbefe3389	-0.49648693
21	0x3ecaed67	0.3963425
22	0x3e556bf7	0.20841967
23	0xbfa8f44d	-1.3199555
24	0x3d56735f	0.05235612
25	0xbf65a693	-0.897073
26	0xbebfb803	-0.37445077
27	0xbeef5f0b	-0.467522
28	0x3cbfabb5	0.023397306
29	0x3ea49dbe	0.32151598
30	0xbf8ca964	-1.0989194
31	0x3dbd3c4f	0.092400186
32	0xbd8d716a	-0.06906398
33	0xbec2d679	-0.38054255
34	0xbed4565c	-0.41472137
35	0x3e32f76e	0.174772
36	0xbedbb217	-0.4290931
37	0xbe30ca3f	-0.17264651
38	0xbeaac00a	-0.3334964
39	0xbe29605c	-0.16540664
40	0x3f1cea38	0.6129489
41	0xbe253b13	-0.16135816
42	0xbee0b086	-0.43884677
43	0xbecb88c5	-0.39752784
44	0xbf10056a	-0.5625826
45	0xbe28e4c1	-0.16493513
46	0xbf493691	-0.78598887
47	0xbfa12812	-1.2590353
48	0xbea8b04d	-0.32947007
49	0x3ed78c6e	0.42099327
50	0xbf5d09df	-0.8634319
51	0xbf85c67e	-1.04512
52	0xbf007ae2	-0.50187504
53	0xbf805593	-1.0026115
54	0xbf497395	-0.7869199
55	0x3e0d6465	0.13807829
56	0x3e94adff	0.29038998
57	0xbcd92199	-0.026505278
58	0xbf26eed6	-0.65208185
59	0xbece99a3	-0.4035159
60	0x3f4126b9	0.7544971
61	0x3ede6c31	0.43441918
62	0xbf72951e	-0.94758785
63	0xbf7a64ad	-0.9780987

bn2.running_var f4 [64]
0	0x406b52eb	3.676936
1	0x3faf0af3	1.3675216
2	0x3f50c404	0.81549096
3	0x4028894d	2.6333802
4	0x3fcddc8a	1.6082928
5	0x3f831650	1.0241184
6	0x3fabe588	1.3429422
7	0x3f87957b	1.0592493
8	0x40181879	2.3764937
9	0x40276daf	2.6160696
10	0x401a079e	2.406715
11	0x3fb5bc2f	1.4198054
12	0x3f817477	1.0113667
13	0x3f386551	0.72029597
14	0x3fd4d93e	1.6628797
15	0x3f55c87b	0.83509034
16	0x3f981fbd	1.1884686
17	0x3fc6fe8f	1.5546435
18	0x40229218	2.5401669
19	0x3ff64b31	1.9241697
20	0x4043ef6d	3.0614884
21	0x40004008	2.0039082
22	0x3fbdcb4f	1.482767
23	0x40615c57	3.521261
24	0x3fcacffa	1.584472
25	0x402fb818	2.7456112
26	0x3fc4d612	1.5377829
27	0x3f5a9f8f	0.8539972
28	0x3f71828e	0.94339836
29	0x3f7ea545	0.9947093
30	0x407f148a	3.9856286
31	0x3f8eec60	1.1165886
32	0x4041b9ed	3.026973
33	0x3fdea445	1.7393881
34	0x3fc4d914	1.5378747
35	0x3f8d8e83	1.1059116
36	0x4011bf93	2.2773178
37	0x3fbafb4b	1.4607939
38	0x3faf1144	1.3677144
39	0x4007cc67	2.1218507
40	0x3f40ce0f	0.7531442
41	0x3f3b152e	0.7307919
42	0x3f806ff8	1.003417
43	0x3f236501	0.63825995
44	0x3f896c68	1.0736208
45	0x3fe2eb89	1.772813
46	0x4078a606	3.8851333
47	0x40135e42	2.302628
48	0x4080529c	4.010084
49	0x3fa1edf6	1.2650745
50	0x3ffb55c4	1.9635549
51	0x4061b787	3.5268266
52	0x404ae058	3.1699429
53	0x3f7b3d8e	0.981408
54	0x408260f4	4.074335
55	0x3fd5f906	1.6716621
56	0x3f2f5288	0.6848531
57	0x3f968f60	1.1762505
58	0x3fdf26af	1.743368
59	0x4011bcd7	2.2771509
60	0x3f67f592	0.90609086
61	0x3f9b7504	1.2145085
62	0x3fb65487	1.4244546
63	0x3fe6ceb2	1.8031828

fc3.weight f4 [15, 64]
0	0x3b701735	0.0036634926
1	0xbcd59baf	-0.026075212
2	0x394e22ea	0.00019658697
3	0xbc83cb52	-0.016088162
4	0x3d5afada	0.053461887
5	0xbb2b685a	-0.0026154728
6	0x3e094c8d	0.13408108
7	0xbd724efb	-0.059157353
8	0xbbfff71d	-0.0078114406
9	0x3d384c3b	0.044994574
10	0xbd9d67de	-0.07685827
11	0xbdb39efa	-0.08770557
12	0x3d9fd64e	0.07804547
13	0xbe2d69ea	-0.16934934
14	0xbd31f18a	-0.04344324
15	0x3e595abf	0.21226023
16	0xbcfd0087	-0.03088404
17	0x3cd97123	0.026543206
18	0xbd24e7e4	-0.04026021
19	0x3d338738	0.043830127
20	0xbd39aacb	-0.045328896
21	0xbdbf1522	-0.09330203
22	0xbd681963	-0.056664836
23	0xbdaa1d87	-0.08306413
24	0xbc95e8f6	-0.018299561
25	0xba4e174e	-0.0007861749
26	0xbcdfa2f7	-0.027299387
27	0x3da5ea5a	0.0810134
28	0x3d5ddb1f	0.05416405
29	0xbb69995b	-0.0035644385
30	0xbb8df903	-0.004332663
31	0xbe078a64	-0.13236386
32	0xbc0612a3	-0.008183154
33	0x3d8f9103	0.07010081
34	0x3d082862	0.033241637
35	0xba97ac1b	-0.0011571677
36	0xbc1ee688	-0.009698518
37	0x3c9bd73a	0.019023526
38	0xbc5e4ab2	-0.013567613
39	0xbdaf20bf	-0.08551168
40	0xbe3b8da0	-0.18315744
41	0xbe585d4a	-0.21129337
42	0xbc1b615f	-0.009483664
43	0x3deb78a2	0.11497618
44	0x3dc51a8d	0.09624205
45	0x3d2c6cea	0.042096056
46	0x3c2e89ba	0.010652954
47	0x3d487ddb	0.04894815
48	0x3cec7aa9	0.028867083
49	0x3c465525	0.012105261
50	0xbc6683b6	-0.014069488
51	0xbd0c92bd	-0.034319628
52	0x3c39056d	0.0112927975
53	0x3e0b6176	0.13611397
54	0xbcfe0bb7	-0.031011445
55	0xbcc66cf3	-0.024221873
56	0x3b41cd1b	0.0029571715
57	0x3ce06213	0.027390515
58	0x3d1a4890	0.037666857
59	0xbc830ef9	-0.01599835
60	0xbd1b8c53	-0.03797562
61	0xbdde7ef6	-0.108640596
62	0x3d7e1e44	0.062040582
63	0x3b2dbdf2	0.0026510921
64	0xbcbf08e0	-0.023319662
65	0x3b8eb49e	0.0043550273
66	0xbc54e84d	-0.012994838
67	0x3cb25b3b	0.021772018
68	0x3c886617	0.016650243
69	0xbcaef4bf	-0.021356938
70	0xbcd4035e	-0.025880512
71	0x3c3e02cc	0.0115973465
72	0xbb9ca537	-0.0047804373
73	0xbbbc98f1	-0.0057555367
74	0xbc41a2ac	-0.011818569
75	0xbc7de5cf	-0.015496685
76	0xbc547bc4	-0.012968961
77	0x3c8db0b6	0.017296176
78	0x3c3f342d	0.0116701545
79	0x3cb15a73	0.021649575
80	0x3ccdd87a	0.025127638
81	0x3b792f98	0.0038022753
82	0xbce3b799	-0.027797507
83	0xbc8df489	-0.017328518
84	0xbbdfe4a6	-0.006832677
85	0x3c3a3be0	0.011366814
86	0xbc2a6202	-0.010399343
87	0xbb14eb68	-0.002272332
88	0xbbb4f22c	-0.005522033
89	0x3ac72ca7	0.0015195803
90	0xbd3362ce	-0.0437954
91	0xbd4dcdac	-0.050244972
92	0xbc51fadb	-0.012816156
93	0x3cc1b689	0.02364661
94	0xbc8c9118	-0.01715903
95	0x3c25d563	0.010121676
96	0xbcad2982	-0.021137957
97	0xbcd60d41	-0.026129367
98	0x3b9ccfb7	0.0047855037
99	0xbd386ba2	-0.04502452
100	0xbc9043b8	-0.017610416
101	0x3c17d4b6	0.009267023
102	0xbc0fbd54	-0.008773167
103	0x3ca0c90e	0.01962712
104	0x3cbca20b	0.023026487
105	0x3c448691	0.011994974
106	0xbb2125b9	-0.0024589135
107	0xbc889118	-0.016670749
108	0xbc61cb5d	-0.013781396
109	0xbbb5202e	-0.0055275178
110	0x3c3a783e	0.011381207
111	0xbce0a136	-0.027420621
112	0xbc273503	-0.01020551
113	0x3c113355	0.008862336
114	0xbc2500da	-0.010071004
115	0x3cf14530	0.029451936
116	0xbc64c0ba	-0.013961965
117	0xbc479613	-0.012181777
118	0x3a8496d3	0.001011575
119	0xbca1c17f	-0.019745586
120	0x3c108e9a	0.008823061
121	0xbbe4b761	-0.0069798683
122	0x3c88c9f3	0.01669786
123	0xbad9cb08	-0.0016616294
124	0xbc448df9	-0.01199674
125	0xbc70a033	-0.014686632
126	0xbba2eaf3	-0.004971856
127	0x3ca1a526	0.01973207
128	0x3aad1910	0.0013206322
129	0xbd51ca71	-0.051218454
130	0x3d19e8f3	0.037575673
131	0xbcb20ac0	-0.021733642
132	0x3d89f135	0.0673546
133	0xba8f0b12	-0.0010913333
134	0x3dcf4309	0.10120208
135	0xbd959b1d	-0.07304976
136	0x3cd1f244	0.025628217
137	0x3d47193a	0.048608042
138	0xbd8c974e	-0.068647966
139	0xbdaab81f	-0.083358996
140	0x3d8d9f89	0.069151945
141	0xbd9f8f98	-0.0779106
142	0xbd841c08	-0.06450659
143	0x3e91e7c8	0.28497148
144	0xbcc8987c	-0.024486773
145	0x3d0aa4ae	0.033848457
146	0xbd280da6	-0.04102864
147	0x3d45fb73	0.048335504
148	0xbd14759d	-0.036244977
149	0xbdb4146d	-0.087929584
150	0xbd49bf53	-0.049254727
151	0xbd0232ab	-0.031786602
152	0xbc80a885	-0.015705356
153	0x3ca52cd1	0.020162972
154	0xbcfc4f68	-0.030799583
155	0x3d32f442	0.043689974
156	0x3d827dad	0.06371627
157	0xbc276d93	-0.010218996
158	0x3b918d12	0.0044418657
159	0xbdd36e63	-0.10323789
160	0xbd040e7a	-0.03224037
161	0x3d90caa6	0.07069902
162	0x3d57ed08	0.052716285
163	0xbb2eb640	-0.0026658922
164	0xbd05abce	-0.03263455
165	0xb94b356b	-0.00019379488
166	0xbc072cec	-0.008250456
167	0xbd4f5dfd	-0.050626744
168	0xbe128139	-0.14307107
169	0xbe486b42	-0.19572166
170	0xbccf3c46	-0.025297295
171	0x3e04d547	0.12971984
172	0x3dad31a6	0.08456735
173	0x3d44b4b9	0.048023913
174	0xbb050d10	-0.0020301975
175	0x3c2c1c6c	0.010504823
176	0x3d018130	0.031617343
177	0x3c2f8451	0.010712699
178	0x3cd89566	0.026438426
179	0xbcafd2e6	-0.021462869
180	0x3c48c5d3	0.012254196
181	0x3e3b807c	0.18310732
182	0xbd3097ac	-0.043113396
183	0xbd0f7f6c	-0.03503363
184	0x3d068e3b	0.032850485
185	0x3c15d518	0.009145044
186	0x3d4c9006	0.04994204
187	0xbcbb6204	-0.022873886
188	0x3d02bb4b	0.031916898
189	0xbdd9e177	-0.10638707
190	0x3daae08d	0.08343611
191	0xbb8edeb7	-0.004360046
192	0x3d26bf1f	0.04070961
193	0xbc7b76c1	-0.015348137
194	0x3e076c44	0.13224894
195	0xbd38c4f0	-0.04510969
196	0x3d7df214	0.06199844
197	0x3dc6129c	0.09671518
198	0xbd88d02c	-0.06680331
199	0xb9c04cea	-0.000366784
200	0x3d048c2d	0.032360245
201	0x3d35849b	0.044315916
202	0x3cad52e7	0.021157695
203	0x3d02561a	0.031820394
204	0xbd485fda	-0.048919536
205	0x3e773dfa	0.24144736
206	0xbd865247	-0.06558662
207	0x3de94e94	0.11391941
208	0xbc9b197a	-0.018933047
209	0x3ca956d6	0.02067129
210	0x3ddab0ef	0.10678279
211	0x3d31c93d	0.043404806
212	0x3bc00018	0.005859386
213	0xbcbba7dd	-0.022907192
214	0xbcb9fbbe	-0.022703048
215	0x3d5688b6	0.05237647
216	0xbc0ae5ab	-0.008477609
217	0x3cc6c994	0.024266042
218	0x3e127a0a	0.14304367
219	0xbc985097	-0.018593116
220	0x3ce0f954	0.027462639
221	0xbd15a199	-0.036531065
222	0x3d045817	0.03231057
223	0x3d4673ad	0.04845016
224	0xbd2bd4b2	-0.04195089
225	0x3db2b12c	0.08725199
226	0xbcef9d03	-0.029249674
227	0x3e26a899	0.16275252
228	0xbd0ebbd1	-0.034847084
229	0xbd7b8a51	-0.061411206
230	0xbcbad992	-0.022808824
231	0x3d13b0a6	0.036057137
232	0x3d97cea0	0.074124575
233	0x3d29862b	0.04138772
234	0xbbdf6538	-0.006817486
235	0xbdb0f1cf	-0.08639871
236	0x3db7c3ef	0.08972918
237	0x3d003f97	0.031310644
238	0xbd1724c3	-0.036900293
239	0xbd82b65b	-0.06382438
240	0x3d128e4e	0.035780244
241	0xbd00740a	-0.031360663
242	0x3c93cf0a	0.01804306
243	0x3d0f9f2a	0.0350639
244	0x3d4cb524	0.049977437
245	0x3d8b180c	0.06791696
246	0xbcbed689	-0.023295658
247	0x3dcf13e8	0.10111219
248	0x3d43d178	0.047807187
249	0xbc48bc41	-0.0122519145
250	0xba5b9006	-0.0008375648
251	0xbce38c23	-0.027776783
252	0x3e41d92b	0.189305
253	0x3cf40c38	0.029790983
254	0x3cd6a51e	0.02620178
255	0xbd02a54b	-0.031895917

fc3.bias f4 [15]
0	0xbe316e44	-0.17327219
1	0xbe579ff1	-0.21057107
2	0x3d90a88f	0.070634
3	0x3edd0fdc	0.43176162
4	0x3f0ad211	0.54226786
5	0xbda51ff0	-0.08062732
6	0xbe7ba26f	-0.24573682
7	0x3d78b36b	0.06071798
8	0x3dc34d8f	0.095362775
9	0x3e3bae73	0.18328266
10	0xbc0ce228	-0.008598842
11	0xbe693be0	-0.22776747
12	0x3dcea619	0.10090274
13	0xbcf3779a	-0.029720116
14	0xbcffb127	-0.031212403
